…
│                     │ 256)              │            │                   │
├─────────────────────┼───────────────────┼────────────┼───────────────────┤
│ batch_normalizatio… │ (None, 16, 16,    │        768 │ conv2d_74[0][0]   │
│ (BatchNormalizatio… │ 256)              │            │                   │
├─────────────────────┼───────────────────┼────────────┼───────────────────┤
│ activation_74       │ (None, 16, 16,    │          0 │ batch_normalizat… │
│ (Activation)        │ 256)              │            │                   │
├─────────────────────┼───────────────────┼────────────┼───────────────────┤
│ conv2d_72 (Conv2D)  │ (None, 7, 7, 384) │  1,105,920 │ block35_10_ac[0]… │
├─────────────────────┼───────────────────┼────────────┼───────────────────┤
│ conv2d_75 (Conv2D)  │ (None, 7, 7, 384) │    884,736 │ activation_74[0]… │
├─────────────────────┼───────────────────┼────────────┼───────────────────┤
│ batch_normalizatio… │ (None, 7, 7, 384) │      1,152 │ conv2d_72[0][0]   │
│ (BatchNormalizatio… │                   │            │                   │
├─────────────────────┼───────────────────┼────────────┼───────────────────┤
│ batch_normalizatio… │ (None, 7, 7, 384) │      1,152 │ conv2d_75[0][0]   │
│ (BatchNormalizatio… │                   │            │                   │
├─────────────────────┼───────────────────┼────────────┼───────────────────┤
│ activation_72       │ (None, 7, 7, 384) │          0 │ batch_normalizat… │
│ (Activation)        │                   │            │                   │
├─────────────────────┼───────────────────┼────────────┼───────────────────┤
│ activation_75       │ (None, 7, 7, 384) │          0 │ batch_normalizat… │
│ (Activation)        │                   │            │                   │
├─────────────────────┼───────────────────┼────────────┼───────────────────┤
│ max_pooling2d_2     │ (None, 7, 7, 320) │          0 │ block35_10_ac[0]… │
│ (MaxPooling2D)      │                   │            │                   │
├─────────────────────┼───────────────────┼────────────┼───────────────────┤
│ mixed_6a            │ (None, 7, 7,      │          0 │ activation_72[0]… │
│ (Concatenate)       │ 1088)             │            │ activation_75[0]… │
│                     │                   │            │ max_pooling2d_2[… │
├─────────────────────┼───────────────────┼────────────┼───────────────────┤
│ conv2d_77 (Conv2D)  │ (None, 7, 7, 128) │    139,264 │ mixed_6a[0][0]    │
├─────────────────────┼───────────────────┼────────────┼───────────────────┤
│ batch_normalizatio… │ (None, 7, 7, 128) │        384 │ conv2d_77[0][0]   │
│ (BatchNormalizatio… │                   │            │                   │
├─────────────────────┼───────────────────┼────────────┼───────────────────┤
│ activation_77       │ (None, 7, 7, 128) │          0 │ batch_normalizat… │
│ (Activation)        │                   │            │                   │
├─────────────────────┼───────────────────┼────────────┼───────────────────┤
│ conv2d_78 (Conv2D)  │ (None, 7, 7, 160) │    143,360 │ activation_77[0]… │
├─────────────────────┼───────────────────┼────────────┼───────────────────┤
│ batch_normalizatio… │ (None, 7, 7, 160) │        480 │ conv2d_78[0][0]   │
│ (BatchNormalizatio… │                   │            │                   │
├─────────────────────┼───────────────────┼────────────┼───────────────────┤
│ activation_78       │ (None, 7, 7, 160) │          0 │ batch_normalizat… │
│ (Activation)        │                   │            │                   │
├─────────────────────┼───────────────────┼────────────┼───────────────────┤
│ conv2d_76 (Conv2D)  │ (None, 7, 7, 192) │    208,896 │ mixed_6a[0][0]    │
├─────────────────────┼───────────────────┼────────────┼───────────────────┤
│ conv2d_79 (Conv2D)  │ (None, 7, 7, 192) │    215,040 │ activation_78[0]… │
├─────────────────────┼───────────────────┼────────────┼───────────────────┤
│ batch_normalizatio… │ (None, 7, 7, 192) │        576 │ conv2d_76[0][0]   │
│ (BatchNormalizatio… │                   │            │                   │
├─────────────────────┼───────────────────┼────────────┼───────────────────┤
│ batch_normalizatio… │ (None, 7, 7, 192) │        576 │ conv2d_79[0][0]   │
│ (BatchNormalizatio… │                   │            │                   │
├─────────────────────┼───────────────────┼────────────┼───────────────────┤
│ activation_76       │ (None, 7, 7, 192) │          0 │ batch_normalizat… │
│ (Activation)        │                   │            │                   │
├─────────────────────┼───────────────────┼────────────┼───────────────────┤
│ activation_79       │ (None, 7, 7, 192) │          0 │ batch_normalizat… │
│ (Activation)        │                   │            │                   │
├─────────────────────┼───────────────────┼────────────┼───────────────────┤
│ block17_1_mixed     │ (None, 7, 7, 384) │          0 │ activation_76[0]… │
│ (Concatenate)       │                   │            │ activation_79[0]… │
├─────────────────────┼───────────────────┼────────────┼───────────────────┤
│ block17_1_conv      │ (None, 7, 7,      │    418,880 │ block17_1_mixed[… │
│ (Conv2D)            │ 1088)             │            │                   │
├─────────────────────┼───────────────────┼────────────┼───────────────────┤
│ custom_scale_layer… │ (None, 7, 7,      │          0 │ mixed_6a[0][0],   │
│ (CustomScaleLayer)  │ 1088)             │            │ block17_1_conv[0… │
├─────────────────────┼───────────────────┼────────────┼───────────────────┤
│ block17_1_ac        │ (None, 7, 7,      │          0 │ custom_scale_lay… │
│ (Activation)        │ 1088)             │            │                   │
├─────────────────────┼───────────────────┼────────────┼───────────────────┤
│ conv2d_81 (Conv2D)  │ (None, 7, 7, 128) │    139,264 │ block17_1_ac[0][… │
├─────────────────────┼───────────────────┼────────────┼───────────────────┤
│ batch_normalizatio… │ (None, 7, 7, 128) │        384 │ conv2d_81[0][0]   │
│ (BatchNormalizatio… │                   │            │                   │
├─────────────────────┼───────────────────┼────────────┼───────────────────┤
│ activation_81       │ (None, 7, 7, 128) │          0 │ batch_normalizat… │
│ (Activation)        │                   │            │                   │
├─────────────────────┼───────────────────┼────────────┼───────────────────┤
│ conv2d_82 (Conv2D)  │ (None, 7, 7, 160) │    143,360 │ activation_81[0]… │
├─────────────────────┼───────────────────┼────────────┼───────────────────┤
│ batch_normalizatio… │ (None, 7, 7, 160) │        480 │ conv2d_82[0][0]   │
│ (BatchNormalizatio… │                   │            │                   │
├─────────────────────┼───────────────────┼────────────┼───────────────────┤
│ activation_82       │ (None, 7, 7, 160) │          0 │ batch_normalizat… │
│ (Activation)        │                   │            │                   │
├─────────────────────┼───────────────────┼────────────┼───────────────────┤
│ conv2d_80 (Conv2D)  │ (None, 7, 7, 192) │    208,896 │ block17_1_ac[0][… │
├─────────────────────┼───────────────────┼────────────┼───────────────────┤
│ conv2d_83 (Conv2D)  │ (None, 7, 7, 192) │    215,040 │ activation_82[0]… │
├─────────────────────┼───────────────────┼────────────┼───────────────────┤
│ batch_normalizatio… │ (None, 7, 7, 192) │        576 │ conv2d_80[0][0]   │
│ (BatchNormalizatio… │                   │            │                   │
├─────────────────────┼───────────────────┼────────────┼───────────────────┤
│ batch_normalizatio… │ (None, 7, 7, 192) │        576 │ conv2d_83[0][0]   │
│ (BatchNormalizatio… │                   │            │                   │
├─────────────────────┼───────────────────┼────────────┼───────────────────┤
│ activation_80       │ (None, 7, 7, 192) │          0 │ batch_normalizat… │
│ (Activation)        │                   │            │                   │
├─────────────────────┼───────────────────┼────────────┼───────────────────┤
│ activation_83       │ (None, 7, 7, 192) │          0 │ batch_normalizat… │
│ (Activation)        │                   │            │                   │
├─────────────────────┼───────────────────┼────────────┼───────────────────┤
│ block17_2_mixed     │ (None, 7, 7, 384) │          0 │ activation_80[0]… │
│ (Concatenate)       │                   │            │ activation_83[0]… │
├─────────────────────┼───────────────────┼────────────┼───────────────────┤
│ block17_2_conv      │ (None, 7, 7,      │    418,880 │ block17_2_mixed[… │
│ (Conv2D)            │ 1088)             │            │                   │
├─────────────────────┼───────────────────┼────────────┼───────────────────┤
│ custom_scale_layer… │ (None, 7, 7,      │          0 │ block17_1_ac[0][… │
│ (CustomScaleLayer)  │ 1088)             │            │ block17_2_conv[0… │
├─────────────────────┼───────────────────┼────────────┼───────────────────┤
│ block17_2_ac        │ (None, 7, 7,      │          0 │ custom_scale_lay… │
│ (Activation)        │ 1088)             │            │                   │
├─────────────────────┼───────────────────┼────────────┼───────────────────┤
│ conv2d_85 (Conv2D)  │ (None, 7, 7, 128) │    139,264 │ block17_2_ac[0][… │
├─────────────────────┼───────────────────┼────────────┼───────────────────┤
│ batch_normalizatio… │ (None, 7, 7, 128) │        384 │ conv2d_85[0][0]   │
│ (BatchNormalizatio… │                   │            │                   │
├─────────────────────┼───────────────────┼────────────┼───────────────────┤
│ activation_85       │ (None, 7, 7, 128) │          0 │ batch_normalizat… │
│ (Activation)        │                   │            │                   │
├─────────────────────┼───────────────────┼────────────┼───────────────────┤
│ conv2d_86 (Conv2D)  │ (None, 7, 7, 160) │    143,360 │ activation_85[0]… │
├─────────────────────┼───────────────────┼────────────┼───────────────────┤
│ batch_normalizatio… │ (None, 7, 7, 160) │        480 │ conv2d_86[0][0]   │
│ (BatchNormalizatio… │                   │            │                   │
├─────────────────────┼───────────────────┼────────────┼───────────────────┤
│ activation_86       │ (None, 7, 7, 160) │          0 │ batch_normalizat… │
│ (Activation)        │                   │            │                   │
├─────────────────────┼───────────────────┼────────────┼───────────────────┤
│ conv2d_84 (Conv2D)  │ (None, 7, 7, 192) │    208,896 │ block17_2_ac[0][… │
├─────────────────────┼───────────────────┼────────────┼───────────────────┤
│ conv2d_87 (Conv2D)  │ (None, 7, 7, 192) │    215,040 │ activation_86[0]… │
├─────────────────────┼───────────────────┼────────────┼───────────────────┤
│ batch_normalizatio… │ (None, 7, 7, 192) │        576 │ conv2d_84[0][0]   │
│ (BatchNormalizatio… │                   │            │                   │
├─────────────────────┼───────────────────┼────────────┼───────────────────┤
│ batch_normalizatio… │ (None, 7, 7, 192) │        576 │ conv2d_87[0][0]   │
│ (BatchNormalizatio… │                   │            │                   │
├─────────────────────┼───────────────────┼────────────┼───────────────────┤
│ activation_84       │ (None, 7, 7, 192) │          0 │ batch_normalizat… │
│ (Activation)        │                   │            │                   │
├─────────────────────┼───────────────────┼────────────┼───────────────────┤
│ activation_87       │ (None, 7, 7, 192) │          0 │ batch_normalizat… │
│ (Activation)        │                   │            │                   │
├─────────────────────┼───────────────────┼────────────┼───────────────────┤
│ block17_3_mixed     │ (None, 7, 7, 384) │          0 │ activation_84[0]… │
│ (Concatenate)       │                   │            │ activation_87[0]… │
├─────────────────────┼───────────────────┼────────────┼───────────────────┤
│ block17_3_conv      │ (None, 7, 7,      │    418,880 │ block17_3_mixed[… │
│ (Conv2D)            │ 1088)             │            │                   │
├─────────────────────┼───────────────────┼────────────┼───────────────────┤
│ custom_scale_layer… │ (None, 7, 7,      │          0 │ block17_2_ac[0][… │
│ (CustomScaleLayer)  │ 1088)             │            │ block17_3_conv[0… │
├─────────────────────┼───────────────────┼────────────┼───────────────────┤
│ block17_3_ac        │ (None, 7, 7,      │          0 │ custom_scale_lay… │
│ (Activation)        │ 1088)             │            │                   │
├─────────────────────┼───────────────────┼────────────┼───────────────────┤
│ conv2d_89 (Conv2D)  │ (None, 7, 7, 128) │    139,264 │ block17_3_ac[0][… │
├─────────────────────┼───────────────────┼────────────┼───────────────────┤
│ batch_normalizatio… │ (None, 7, 7, 128) │        384 │ conv2d_89[0][0]   │
│ (BatchNormalizatio… │                   │            │                   │
├─────────────────────┼───────────────────┼────────────┼───────────────────┤
│ activation_89       │ (None, 7, 7, 128) │          0 │ batch_normalizat… │
│ (Activation)        │                   │            │                   │
├─────────────────────┼───────────────────┼────────────┼───────────────────┤
│ conv2d_90 (Conv2D)  │ (None, 7, 7, 160) │    143,360 │ activation_89[0]… │
├─────────────────────┼───────────────────┼────────────┼───────────────────┤
│ batch_normalizatio… │ (None, 7, 7, 160) │        480 │ conv2d_90[0][0]   │
│ (BatchNormalizatio… │                   │            │                   │
├─────────────────────┼───────────────────┼────────────┼───────────────────┤
│ activation_90       │ (None, 7, 7, 160) │          0 │ batch_normalizat… │
│ (Activation)        │                   │            │                   │
├─────────────────────┼───────────────────┼────────────┼───────────────────┤
│ conv2d_88 (Conv2D)  │ (None, 7, 7, 192) │    208,896 │ block17_3_ac[0][… │
├─────────────────────┼───────────────────┼────────────┼───────────────────┤
│ conv2d_91 (Conv2D)  │ (None, 7, 7, 192) │    215,040 │ activation_90[0]… │
├─────────────────────┼───────────────────┼────────────┼───────────────────┤
│ batch_normalizatio… │ (None, 7, 7, 192) │        576 │ conv2d_88[0][0]   │
│ (BatchNormalizatio… │                   │            │                   │
├─────────────────────┼───────────────────┼────────────┼───────────────────┤
│ batch_normalizatio… │ (None, 7, 7, 192) │        576 │ conv2d_91[0][0]   │
│ (BatchNormalizatio… │                   │            │                   │
├─────────────────────┼───────────────────┼────────────┼───────────────────┤
│ activation_88       │ (None, 7, 7, 192) │          0 │ batch_normalizat… │
│ (Activation)        │                   │            │                   │
├─────────────────────┼───────────────────┼────────────┼───────────────────┤
│ activation_91       │ (None, 7, 7, 192) │          0 │ batch_normalizat… │
│ (Activation)        │                   │            │                   │
├─────────────────────┼───────────────────┼────────────┼───────────────────┤
│ block17_4_mixed     │ (None, 7, 7, 384) │          0 │ activation_88[0]… │
│ (Concatenate)       │                   │            │ activation_91[0]… │
├─────────────────────┼───────────────────┼────────────┼───────────────────┤
│ block17_4_conv      │ (None, 7, 7,      │    418,880 │ block17_4_mixed[… │
│ (Conv2D)            │ 1088)             │            │                   │
├─────────────────────┼───────────────────┼────────────┼───────────────────┤
│ custom_scale_layer… │ (None, 7, 7,      │          0 │ block17_3_ac[0][… │
│ (CustomScaleLayer)  │ 1088)             │            │ block17_4_conv[0… │
├─────────────────────┼───────────────────┼────────────┼───────────────────┤
│ block17_4_ac        │ (None, 7, 7,      │          0 │ custom_scale_lay… │
│ (Activation)        │ 1088)             │            │                   │
├─────────────────────┼───────────────────┼────────────┼───────────────────┤
│ conv2d_93 (Conv2D)  │ (None, 7, 7, 128) │    139,264 │ block17_4_ac[0][… │
├─────────────────────┼───────────────────┼────────────┼───────────────────┤
│ batch_normalizatio… │ (None, 7, 7, 128) │        384 │ conv2d_93[0][0]   │
│ (BatchNormalizatio… │                   │            │                   │
├─────────────────────┼───────────────────┼────────────┼───────────────────┤
│ activation_93       │ (None, 7, 7, 128) │          0 │ batch_normalizat… │
│ (Activation)        │                   │            │                   │
├─────────────────────┼───────────────────┼────────────┼───────────────────┤
│ conv2d_94 (Conv2D)  │ (None, 7, 7, 160) │    143,360 │ activation_93[0]… │
├─────────────────────┼───────────────────┼────────────┼───────────────────┤
│ batch_normalizatio… │ (None, 7, 7, 160) │        480 │ conv2d_94[0][0]   │
│ (BatchNormalizatio… │                   │            │                   │
├─────────────────────┼───────────────────┼────────────┼───────────────────┤
│ activation_94       │ (None, 7, 7, 160) │          0 │ batch_normalizat… │
│ (Activation)        │                   │            │                   │
├─────────────────────┼───────────────────┼────────────┼───────────────────┤
│ conv2d_92 (Conv2D)  │ (None, 7, 7, 192) │    208,896 │ block17_4_ac[0][… │
├─────────────────────┼───────────────────┼────────────┼───────────────────┤
│ conv2d_95 (Conv2D)  │ (None, 7, 7, 192) │    215,040 │ activation_94[0]… │
├─────────────────────┼───────────────────┼────────────┼───────────────────┤
│ batch_normalizatio… │ (None, 7, 7, 192) │        576 │ conv2d_92[0][0]   │
│ (BatchNormalizatio… │                   │            │                   │
├─────────────────────┼───────────────────┼────────────┼───────────────────┤
│ batch_normalizatio… │ (None, 7, 7, 192) │        576 │ conv2d_95[0][0]   │
│ (BatchNormalizatio… │                   │            │                   │
├─────────────────────┼───────────────────┼────────────┼───────────────────┤
│ activation_92       │ (None, 7, 7, 192) │          0 │ batch_normalizat… │
│ (Activation)        │                   │            │                   │
├─────────────────────┼───────────────────┼────────────┼───────────────────┤
│ activation_95       │ (None, 7, 7, 192) │          0 │ batch_normalizat… │
│ (Activation)        │                   │            │                   │
├─────────────────────┼───────────────────┼────────────┼───────────────────┤
│ block17_5_mixed     │ (None, 7, 7, 384) │          0 │ activation_92[0]… │
│ (Concatenate)       │                   │            │ activation_95[0]… │
├─────────────────────┼───────────────────┼────────────┼───────────────────┤
│ block17_5_conv      │ (None, 7, 7,      │    418,880 │ block17_5_mixed[… │
│ (Conv2D)            │ 1088)             │            │                   │
├─────────────────────┼───────────────────┼────────────┼───────────────────┤
│ custom_scale_layer… │ (None, 7, 7,      │          0 │ block17_4_ac[0][… │
│ (CustomScaleLayer)  │ 1088)             │            │ block17_5_conv[0… │
├─────────────────────┼───────────────────┼────────────┼───────────────────┤
│ block17_5_ac        │ (None, 7, 7,      │          0 │ custom_scale_lay… │
│ (Activation)        │ 1088)             │            │                   │
├─────────────────────┼───────────────────┼────────────┼───────────────────┤
│ conv2d_97 (Conv2D)  │ (None, 7, 7, 128) │    139,264 │ block17_5_ac[0][… │
├─────────────────────┼───────────────────┼────────────┼───────────────────┤
│ batch_normalizatio… │ (None, 7, 7, 128) │        384 │ conv2d_97[0][0]   │
│ (BatchNormalizatio… │                   │            │                   │
├─────────────────────┼───────────────────┼────────────┼───────────────────┤
│ activation_97       │ (None, 7, 7, 128) │          0 │ batch_normalizat… │
│ (Activation)        │                   │            │                   │
├─────────────────────┼───────────────────┼────────────┼───────────────────┤
│ conv2d_98 (Conv2D)  │ (None, 7, 7, 160) │    143,360 │ activation_97[0]… │
├─────────────────────┼───────────────────┼────────────┼───────────────────┤
│ batch_normalizatio… │ (None, 7, 7, 160) │        480 │ conv2d_98[0][0]   │
│ (BatchNormalizatio… │                   │            │                   │
├─────────────────────┼───────────────────┼────────────┼───────────────────┤
│ activation_98       │ (None, 7, 7, 160) │          0 │ batch_normalizat… │
│ (Activation)        │                   │            │                   │
├─────────────────────┼───────────────────┼────────────┼───────────────────┤
│ conv2d_96 (Conv2D)  │ (None, 7, 7, 192) │    208,896 │ block17_5_ac[0][… │
├─────────────────────┼───────────────────┼────────────┼───────────────────┤
│ conv2d_99 (Conv2D)  │ (None, 7, 7, 192) │    215,040 │ activation_98[0]… │
├─────────────────────┼───────────────────┼────────────┼───────────────────┤
│ batch_normalizatio… │ (None, 7, 7, 192) │        576 │ conv2d_96[0][0]   │
│ (BatchNormalizatio… │                   │            │                   │
├─────────────────────┼───────────────────┼────────────┼───────────────────┤
│ batch_normalizatio… │ (None, 7, 7, 192) │        576 │ conv2d_99[0][0]   │
│ (BatchNormalizatio… │                   │            │                   │
├─────────────────────┼───────────────────┼────────────┼───────────────────┤
│ activation_96       │ (None, 7, 7, 192) │          0 │ batch_normalizat… │
│ (Activation)        │                   │            │                   │
├─────────────────────┼───────────────────┼────────────┼───────────────────┤
│ activation_99       │ (None, 7, 7, 192) │          0 │ batch_normalizat… │
│ (Activation)        │                   │            │                   │
├─────────────────────┼───────────────────┼────────────┼───────────────────┤
│ block17_6_mixed     │ (None, 7, 7, 384) │          0 │ activation_96[0]… │
│ (Concatenate)       │                   │            │ activation_99[0]… │
├─────────────────────┼───────────────────┼────────────┼───────────────────┤
│ block17_6_conv      │ (None, 7, 7,      │    418,880 │ block17_6_mixed[… │
│ (Conv2D)            │ 1088)             │            │                   │
├─────────────────────┼───────────────────┼────────────┼───────────────────┤
│ custom_scale_layer… │ (None, 7, 7,      │          0 │ block17_5_ac[0][… │
│ (CustomScaleLayer)  │ 1088)             │            │ block17_6_conv[0… │
├─────────────────────┼───────────────────┼────────────┼───────────────────┤
│ block17_6_ac        │ (None, 7, 7,      │          0 │ custom_scale_lay… │
│ (Activation)        │ 1088)             │            │                   │
├─────────────────────┼───────────────────┼────────────┼───────────────────┤
│ conv2d_101 (Conv2D) │ (None, 7, 7, 128) │    139,264 │ block17_6_ac[0][… │
├─────────────────────┼───────────────────┼────────────┼───────────────────┤
│ batch_normalizatio… │ (None, 7, 7, 128) │        384 │ conv2d_101[0][0]  │
│ (BatchNormalizatio… │                   │            │                   │
├─────────────────────┼───────────────────┼────────────┼───────────────────┤
│ activation_101      │ (None, 7, 7, 128) │          0 │ batch_normalizat… │
│ (Activation)        │                   │            │                   │
├─────────────────────┼───────────────────┼────────────┼───────────────────┤
│ conv2d_102 (Conv2D) │ (None, 7, 7, 160) │    143,360 │ activation_101[0… │
├─────────────────────┼───────────────────┼────────────┼───────────────────┤
│ batch_normalizatio… │ (None, 7, 7, 160) │        480 │ conv2d_102[0][0]  │
│ (BatchNormalizatio… │                   │            │                   │
├─────────────────────┼───────────────────┼────────────┼───────────────────┤
│ activation_102      │ (None, 7, 7, 160) │          0 │ batch_normalizat… │
│ (Activation)        │                   │            │                   │
├─────────────────────┼───────────────────┼────────────┼───────────────────┤
│ conv2d_100 (Conv2D) │ (None, 7, 7, 192) │    208,896 │ block17_6_ac[0][… │
├─────────────────────┼───────────────────┼────────────┼───────────────────┤
│ conv2d_103 (Conv2D) │ (None, 7, 7, 192) │    215,040 │ activation_102[0… │
├─────────────────────┼───────────────────┼────────────┼───────────────────┤
│ batch_normalizatio… │ (None, 7, 7, 192) │        576 │ conv2d_100[0][0]  │
│ (BatchNormalizatio… │                   │            │                   │
├─────────────────────┼───────────────────┼────────────┼───────────────────┤
│ batch_normalizatio… │ (None, 7, 7, 192) │        576 │ conv2d_103[0][0]  │
│ (BatchNormalizatio… │                   │            │                   │
├─────────────────────┼───────────────────┼────────────┼───────────────────┤
│ activation_100      │ (None, 7, 7, 192) │          0 │ batch_normalizat… │
│ (Activation)        │                   │            │                   │
├─────────────────────┼───────────────────┼────────────┼───────────────────┤
│ activation_103      │ (None, 7, 7, 192) │          0 │ batch_normalizat… │
│ (Activation)        │                   │            │                   │
├─────────────────────┼───────────────────┼────────────┼───────────────────┤
│ block17_7_mixed     │ (None, 7, 7, 384) │          0 │ activation_100[0… │
│ (Concatenate)       │                   │            │ activation_103[0… │
├─────────────────────┼───────────────────┼────────────┼───────────────────┤
│ block17_7_conv      │ (None, 7, 7,      │    418,880 │ block17_7_mixed[… │
│ (Conv2D)            │ 1088)             │            │                   │
├─────────────────────┼───────────────────┼────────────┼───────────────────┤
│ custom_scale_layer… │ (None, 7, 7,      │          0 │ block17_6_ac[0][… │
│ (CustomScaleLayer)  │ 1088)             │            │ block17_7_conv[0… │
├─────────────────────┼───────────────────┼────────────┼───────────────────┤
│ block17_7_ac        │ (None, 7, 7,      │          0 │ custom_scale_lay… │
│ (Activation)        │ 1088)             │            │                   │
├─────────────────────┼───────────────────┼────────────┼───────────────────┤
│ conv2d_105 (Conv2D) │ (None, 7, 7, 128) │    139,264 │ block17_7_ac[0][… │
├─────────────────────┼───────────────────┼────────────┼───────────────────┤
│ batch_normalizatio… │ (None, 7, 7, 128) │        384 │ conv2d_105[0][0]  │
│ (BatchNormalizatio… │                   │            │                   │
├─────────────────────┼───────────────────┼────────────┼───────────────────┤
│ activation_105      │ (None, 7, 7, 128) │          0 │ batch_normalizat… │
│ (Activation)        │                   │            │                   │
├─────────────────────┼───────────────────┼────────────┼───────────────────┤
│ conv2d_106 (Conv2D) │ (None, 7, 7, 160) │    143,360 │ activation_105[0… │
├─────────────────────┼───────────────────┼────────────┼───────────────────┤
│ batch_normalizatio… │ (None, 7, 7, 160) │        480 │ conv2d_106[0][0]  │
│ (BatchNormalizatio… │                   │            │                   │
├─────────────────────┼───────────────────┼────────────┼───────────────────┤
│ activation_106      │ (None, 7, 7, 160) │          0 │ batch_normalizat… │
│ (Activation)        │                   │            │                   │
├─────────────────────┼───────────────────┼────────────┼───────────────────┤
│ conv2d_104 (Conv2D) │ (None, 7, 7, 192) │    208,896 │ block17_7_ac[0][… │
├─────────────────────┼───────────────────┼────────────┼───────────────────┤
│ conv2d_107 (Conv2D) │ (None, 7, 7, 192) │    215,040 │ activation_106[0… │
├─────────────────────┼───────────────────┼────────────┼───────────────────┤
│ batch_normalizatio… │ (None, 7, 7, 192) │        576 │ conv2d_104[0][0]  │
│ (BatchNormalizatio… │                   │            │                   │
├─────────────────────┼───────────────────┼────────────┼───────────────────┤
│ batch_normalizatio… │ (None, 7, 7, 192) │        576 │ conv2d_107[0][0]  │
│ (BatchNormalizatio… │                   │            │                   │
├─────────────────────┼───────────────────┼────────────┼───────────────────┤
│ activation_104      │ (None, 7, 7, 192) │          0 │ batch_normalizat… │
│ (Activation)        │                   │            │                   │
├─────────────────────┼───────────────────┼────────────┼───────────────────┤
│ activation_107      │ (None, 7, 7, 192) │          0 │ batch_normalizat… │
│ (Activation)        │                   │            │                   │
├─────────────────────┼───────────────────┼────────────┼───────────────────┤
│ block17_8_mixed     │ (None, 7, 7, 384) │          0 │ activation_104[0… │
│ (Concatenate)       │                   │            │ activation_107[0… │
├─────────────────────┼───────────────────┼────────────┼───────────────────┤
│ block17_8_conv      │ (None, 7, 7,      │    418,880 │ block17_8_mixed[… │
│ (Conv2D)            │ 1088)             │            │                   │
├─────────────────────┼───────────────────┼────────────┼───────────────────┤
│ custom_scale_layer… │ (None, 7, 7,      │          0 │ block17_7_ac[0][… │
│ (CustomScaleLayer)  │ 1088)             │            │ block17_8_conv[0… │
├─────────────────────┼───────────────────┼────────────┼───────────────────┤
│ block17_8_ac        │ (None, 7, 7,      │          0 │ custom_scale_lay… │
│ (Activation)        │ 1088)             │            │                   │
├─────────────────────┼───────────────────┼────────────┼───────────────────┤
│ conv2d_109 (Conv2D) │ (None, 7, 7, 128) │    139,264 │ block17_8_ac[0][… │
├─────────────────────┼───────────────────┼────────────┼───────────────────┤
│ batch_normalizatio… │ (None, 7, 7, 128) │        384 │ conv2d_109[0][0]  │
│ (BatchNormalizatio… │                   │            │                   │
├─────────────────────┼───────────────────┼────────────┼───────────────────┤
│ activation_109      │ (None, 7, 7, 128) │          0 │ batch_normalizat… │
│ (Activation)        │                   │            │                   │
├─────────────────────┼───────────────────┼────────────┼───────────────────┤
│ conv2d_110 (Conv2D) │ (None, 7, 7, 160) │    143,360 │ activation_109[0… │
├─────────────────────┼───────────────────┼────────────┼───────────────────┤
│ batch_normalizatio… │ (None, 7, 7, 160) │        480 │ conv2d_110[0][0]  │
│ (BatchNormalizatio… │                   │            │                   │
├─────────────────────┼───────────────────┼────────────┼───────────────────┤
│ activation_110      │ (None, 7, 7, 160) │          0 │ batch_normalizat… │
│ (Activation)        │                   │            │                   │
├─────────────────────┼───────────────────┼────────────┼───────────────────┤
│ conv2d_108 (Conv2D) │ (None, 7, 7, 192) │    208,896 │ block17_8_ac[0][… │
├─────────────────────┼───────────────────┼────────────┼───────────────────┤
│ conv2d_111 (Conv2D) │ (None, 7, 7, 192) │    215,040 │ activation_110[0… │
├─────────────────────┼───────────────────┼────────────┼───────────────────┤
│ batch_normalizatio… │ (None, 7, 7, 192) │        576 │ conv2d_108[0][0]  │
│ (BatchNormalizatio… │                   │            │                   │
├─────────────────────┼───────────────────┼────────────┼───────────────────┤
│ batch_normalizatio… │ (None, 7, 7, 192) │        576 │ conv2d_111[0][0]  │
│ (BatchNormalizatio… │                   │            │                   │
├─────────────────────┼───────────────────┼────────────┼───────────────────┤
│ activation_108      │ (None, 7, 7, 192) │          0 │ batch_normalizat… │
│ (Activation)        │                   │            │                   │
├─────────────────────┼───────────────────┼────────────┼───────────────────┤
│ activation_111      │ (None, 7, 7, 192) │          0 │ batch_normalizat… │
│ (Activation)        │                   │            │                   │
├─────────────────────┼───────────────────┼────────────┼───────────────────┤
│ block17_9_mixed     │ (None, 7, 7, 384) │          0 │ activation_108[0… │
│ (Concatenate)       │                   │            │ activation_111[0… │
├─────────────────────┼───────────────────┼────────────┼───────────────────┤
│ block17_9_conv      │ (None, 7, 7,      │    418,880 │ block17_9_mixed[… │
│ (Conv2D)            │ 1088)             │            │                   │
├─────────────────────┼───────────────────┼────────────┼───────────────────┤
│ custom_scale_layer… │ (None, 7, 7,      │          0 │ block17_8_ac[0][… │
│ (CustomScaleLayer)  │ 1088)             │            │ block17_9_conv[0… │
├─────────────────────┼───────────────────┼────────────┼───────────────────┤
│ block17_9_ac        │ (None, 7, 7,      │          0 │ custom_scale_lay… │
│ (Activation)        │ 1088)             │            │                   │
├─────────────────────┼───────────────────┼────────────┼───────────────────┤
│ conv2d_113 (Conv2D) │ (None, 7, 7, 128) │    139,264 │ block17_9_ac[0][… │
├─────────────────────┼───────────────────┼────────────┼───────────────────┤
│ batch_normalizatio… │ (None, 7, 7, 128) │        384 │ conv2d_113[0][0]  │
│ (BatchNormalizatio… │                   │            │                   │
├─────────────────────┼───────────────────┼────────────┼───────────────────┤
│ activation_113      │ (None, 7, 7, 128) │          0 │ batch_normalizat… │
│ (Activation)        │                   │            │                   │
├─────────────────────┼───────────────────┼────────────┼───────────────────┤
│ conv2d_114 (Conv2D) │ (None, 7, 7, 160) │    143,360 │ activation_113[0… │
├─────────────────────┼───────────────────┼────────────┼───────────────────┤
│ batch_normalizatio… │ (None, 7, 7, 160) │        480 │ conv2d_114[0][0]  │
│ (BatchNormalizatio… │                   │            │                   │
├─────────────────────┼───────────────────┼────────────┼───────────────────┤
│ activation_114      │ (None, 7, 7, 160) │          0 │ batch_normalizat… │
│ (Activation)        │                   │            │                   │
├─────────────────────┼───────────────────┼────────────┼───────────────────┤
│ conv2d_112 (Conv2D) │ (None, 7, 7, 192) │    208,896 │ block17_9_ac[0][… │
├─────────────────────┼───────────────────┼────────────┼───────────────────┤
│ conv2d_115 (Conv2D) │ (None, 7, 7, 192) │    215,040 │ activation_114[0… │
├─────────────────────┼───────────────────┼────────────┼───────────────────┤
│ batch_normalizatio… │ (None, 7, 7, 192) │        576 │ conv2d_112[0][0]  │
│ (BatchNormalizatio… │                   │            │                   │
├─────────────────────┼───────────────────┼────────────┼───────────────────┤
│ batch_normalizatio… │ (None, 7, 7, 192) │        576 │ conv2d_115[0][0]  │
│ (BatchNormalizatio… │                   │            │                   │
├─────────────────────┼───────────────────┼────────────┼───────────────────┤
│ activation_112      │ (None, 7, 7, 192) │          0 │ batch_normalizat… │
│ (Activation)        │                   │            │                   │
├─────────────────────┼───────────────────┼────────────┼───────────────────┤
│ activation_115      │ (None, 7, 7, 192) │          0 │ batch_normalizat… │
│ (Activation)        │                   │            │                   │
├─────────────────────┼───────────────────┼────────────┼───────────────────┤
│ block17_10_mixed    │ (None, 7, 7, 384) │          0 │ activation_112[0… │
│ (Concatenate)       │                   │            │ activation_115[0… │
├─────────────────────┼───────────────────┼────────────┼───────────────────┤
│ block17_10_conv     │ (None, 7, 7,      │    418,880 │ block17_10_mixed… │
│ (Conv2D)            │ 1088)             │            │                   │
├─────────────────────┼───────────────────┼────────────┼───────────────────┤
│ custom_scale_layer… │ (None, 7, 7,      │          0 │ block17_9_ac[0][… │
│ (CustomScaleLayer)  │ 1088)             │            │ block17_10_conv[… │
├─────────────────────┼───────────────────┼────────────┼───────────────────┤
│ block17_10_ac       │ (None, 7, 7,      │          0 │ custom_scale_lay… │
│ (Activation)        │ 1088)             │            │                   │
├─────────────────────┼───────────────────┼────────────┼───────────────────┤
│ conv2d_117 (Conv2D) │ (None, 7, 7, 128) │    139,264 │ block17_10_ac[0]… │
├─────────────────────┼───────────────────┼────────────┼───────────────────┤
│ batch_normalizatio… │ (None, 7, 7, 128) │        384 │ conv2d_117[0][0]  │
│ (BatchNormalizatio… │                   │            │                   │
├─────────────────────┼───────────────────┼────────────┼───────────────────┤
│ activation_117      │ (None, 7, 7, 128) │          0 │ batch_normalizat… │
│ (Activation)        │                   │            │                   │
├─────────────────────┼───────────────────┼────────────┼───────────────────┤
│ conv2d_118 (Conv2D) │ (None, 7, 7, 160) │    143,360 │ activation_117[0… │
├─────────────────────┼───────────────────┼────────────┼───────────────────┤
│ batch_normalizatio… │ (None, 7, 7, 160) │        480 │ conv2d_118[0][0]  │
│ (BatchNormalizatio… │                   │            │                   │
├─────────────────────┼───────────────────┼────────────┼───────────────────┤
│ activation_118      │ (None, 7, 7, 160) │          0 │ batch_normalizat… │
│ (Activation)        │                   │            │                   │
├─────────────────────┼───────────────────┼────────────┼───────────────────┤
│ conv2d_116 (Conv2D) │ (None, 7, 7, 192) │    208,896 │ block17_10_ac[0]… │
├─────────────────────┼───────────────────┼────────────┼───────────────────┤
│ conv2d_119 (Conv2D) │ (None, 7, 7, 192) │    215,040 │ activation_118[0… │
├─────────────────────┼───────────────────┼────────────┼───────────────────┤
│ batch_normalizatio… │ (None, 7, 7, 192) │        576 │ conv2d_116[0][0]  │
│ (BatchNormalizatio… │                   │            │                   │
├─────────────────────┼───────────────────┼────────────┼───────────────────┤
│ batch_normalizatio… │ (None, 7, 7, 192) │        576 │ conv2d_119[0][0]  │
│ (BatchNormalizatio… │                   │            │                   │
├─────────────────────┼───────────────────┼────────────┼───────────────────┤
│ activation_116      │ (None, 7, 7, 192) │          0 │ batch_normalizat… │
│ (Activation)        │                   │            │                   │
├─────────────────────┼───────────────────┼────────────┼───────────────────┤
│ activation_119      │ (None, 7, 7, 192) │          0 │ batch_normalizat… │
│ (Activation)        │                   │            │                   │
├─────────────────────┼───────────────────┼────────────┼───────────────────┤
│ block17_11_mixed    │ (None, 7, 7, 384) │          0 │ activation_116[0… │
│ (Concatenate)       │                   │            │ activation_119[0… │
├─────────────────────┼───────────────────┼────────────┼───────────────────┤
│ block17_11_conv     │ (None, 7, 7,      │    418,880 │ block17_11_mixed… │
│ (Conv2D)            │ 1088)             │            │                   │
├─────────────────────┼───────────────────┼────────────┼───────────────────┤
│ custom_scale_layer… │ (None, 7, 7,      │          0 │ block17_10_ac[0]… │
│ (CustomScaleLayer)  │ 1088)             │            │ block17_11_conv[… │
├─────────────────────┼───────────────────┼────────────┼───────────────────┤
│ block17_11_ac       │ (None, 7, 7,      │          0 │ custom_scale_lay… │
│ (Activation)        │ 1088)             │            │                   │
├─────────────────────┼───────────────────┼────────────┼───────────────────┤
│ conv2d_121 (Conv2D) │ (None, 7, 7, 128) │    139,264 │ block17_11_ac[0]… │
├─────────────────────┼───────────────────┼────────────┼───────────────────┤
│ batch_normalizatio… │ (None, 7, 7, 128) │        384 │ conv2d_121[0][0]  │
│ (BatchNormalizatio… │                   │            │                   │
├─────────────────────┼───────────────────┼────────────┼───────────────────┤
│ activation_121      │ (None, 7, 7, 128) │          0 │ batch_normalizat… │
│ (Activation)        │                   │            │                   │
├─────────────────────┼───────────────────┼────────────┼───────────────────┤
│ conv2d_122 (Conv2D) │ (None, 7, 7, 160) │    143,360 │ activation_121[0… │
├─────────────────────┼───────────────────┼────────────┼───────────────────┤
│ batch_normalizatio… │ (None, 7, 7, 160) │        480 │ conv2d_122[0][0]  │
│ (BatchNormalizatio… │                   │            │                   │
├─────────────────────┼───────────────────┼────────────┼───────────────────┤
│ activation_122      │ (None, 7, 7, 160) │          0 │ batch_normalizat… │
│ (Activation)        │                   │            │                   │
├─────────────────────┼───────────────────┼────────────┼───────────────────┤
│ conv2d_120 (Conv2D) │ (None, 7, 7, 192) │    208,896 │ block17_11_ac[0]… │
├─────────────────────┼───────────────────┼────────────┼───────────────────┤
│ conv2d_123 (Conv2D) │ (None, 7, 7, 192) │    215,040 │ activation_122[0… │
├─────────────────────┼───────────────────┼────────────┼───────────────────┤
│ batch_normalizatio… │ (None, 7, 7, 192) │        576 │ conv2d_120[0][0]  │
│ (BatchNormalizatio… │                   │            │                   │
├─────────────────────┼───────────────────┼────────────┼───────────────────┤
│ batch_normalizatio… │ (None, 7, 7, 192) │        576 │ conv2d_123[0][0]  │
│ (BatchNormalizatio… │                   │            │                   │
├─────────────────────┼───────────────────┼────────────┼───────────────────┤
│ activation_120      │ (None, 7, 7, 192) │          0 │ batch_normalizat… │
│ (Activation)        │                   │            │                   │
├─────────────────────┼───────────────────┼────────────┼───────────────────┤
│ activation_123      │ (None, 7, 7, 192) │          0 │ batch_normalizat… │
│ (Activation)        │                   │            │                   │
├─────────────────────┼───────────────────┼────────────┼───────────────────┤
│ block17_12_mixed    │ (None, 7, 7, 384) │          0 │ activation_120[0… │
│ (Concatenate)       │                   │            │ activation_123[0… │
├─────────────────────┼───────────────────┼────────────┼───────────────────┤
│ block17_12_conv     │ (None, 7, 7,      │    418,880 │ block17_12_mixed… │
│ (Conv2D)            │ 1088)             │            │                   │
├─────────────────────┼───────────────────┼────────────┼───────────────────┤
│ custom_scale_layer… │ (None, 7, 7,      │          0 │ block17_11_ac[0]… │
│ (CustomScaleLayer)  │ 1088)             │            │ block17_12_conv[… │
├─────────────────────┼───────────────────┼────────────┼───────────────────┤
│ block17_12_ac       │ (None, 7, 7,      │          0 │ custom_scale_lay… │
│ (Activation)        │ 1088)             │            │                   │
├─────────────────────┼───────────────────┼────────────┼───────────────────┤
│ conv2d_125 (Conv2D) │ (None, 7, 7, 128) │    139,264 │ block17_12_ac[0]… │
├─────────────────────┼───────────────────┼────────────┼───────────────────┤
│ batch_normalizatio… │ (None, 7, 7, 128) │        384 │ conv2d_125[0][0]  │
│ (BatchNormalizatio… │                   │            │                   │
├─────────────────────┼───────────────────┼────────────┼───────────────────┤
│ activation_125      │ (None, 7, 7, 128) │          0 │ batch_normalizat… │
│ (Activation)        │                   │            │                   │
├─────────────────────┼───────────────────┼────────────┼───────────────────┤
│ conv2d_126 (Conv2D) │ (None, 7, 7, 160) │    143,360 │ activation_125[0… │
├─────────────────────┼───────────────────┼────────────┼───────────────────┤
│ batch_normalizatio… │ (None, 7, 7, 160) │        480 │ conv2d_126[0][0]  │
│ (BatchNormalizatio… │                   │            │                   │
├─────────────────────┼───────────────────┼────────────┼───────────────────┤
│ activation_126      │ (None, 7, 7, 160) │          0 │ batch_normalizat… │
│ (Activation)        │                   │            │                   │
├─────────────────────┼───────────────────┼────────────┼───────────────────┤
│ conv2d_124 (Conv2D) │ (None, 7, 7, 192) │    208,896 │ block17_12_ac[0]… │
├─────────────────────┼───────────────────┼────────────┼───────────────────┤
│ conv2d_127 (Conv2D) │ (None, 7, 7, 192) │    215,040 │ activation_126[0… │
├─────────────────────┼───────────────────┼────────────┼───────────────────┤
│ batch_normalizatio… │ (None, 7, 7, 192) │        576 │ conv2d_124[0][0]  │
│ (BatchNormalizatio… │                   │            │                   │
├─────────────────────┼───────────────────┼────────────┼───────────────────┤
│ batch_normalizatio… │ (None, 7, 7, 192) │        576 │ conv2d_127[0][0]  │
│ (BatchNormalizatio… │                   │            │                   │
├─────────────────────┼───────────────────┼────────────┼───────────────────┤
│ activation_124      │ (None, 7, 7, 192) │          0 │ batch_normalizat… │
│ (Activation)        │                   │            │                   │
├─────────────────────┼───────────────────┼────────────┼───────────────────┤
│ activation_127      │ (None, 7, 7, 192) │          0 │ batch_normalizat… │
│ (Activation)        │                   │            │                   │
├─────────────────────┼───────────────────┼────────────┼───────────────────┤
│ block17_13_mixed    │ (None, 7, 7, 384) │          0 │ activation_124[0… │
│ (Concatenate)       │                   │            │ activation_127[0… │
├─────────────────────┼───────────────────┼────────────┼───────────────────┤
│ block17_13_conv     │ (None, 7, 7,      │    418,880 │ block17_13_mixed… │
│ (Conv2D)            │ 1088)             │            │                   │
├─────────────────────┼───────────────────┼────────────┼───────────────────┤
│ custom_scale_layer… │ (None, 7, 7,      │          0 │ block17_12_ac[0]… │
│ (CustomScaleLayer)  │ 1088)             │            │ block17_13_conv[… │
├─────────────────────┼───────────────────┼────────────┼───────────────────┤
│ block17_13_ac       │ (None, 7, 7,      │          0 │ custom_scale_lay… │
│ (Activation)        │ 1088)             │            │                   │
├─────────────────────┼───────────────────┼────────────┼───────────────────┤
│ conv2d_129 (Conv2D) │ (None, 7, 7, 128) │    139,264 │ block17_13_ac[0]… │
├─────────────────────┼───────────────────┼────────────┼───────────────────┤
│ batch_normalizatio… │ (None, 7, 7, 128) │        384 │ conv2d_129[0][0]  │
│ (BatchNormalizatio… │                   │            │                   │
├─────────────────────┼───────────────────┼────────────┼───────────────────┤
│ activation_129      │ (None, 7, 7, 128) │          0 │ batch_normalizat… │
│ (Activation)        │                   │            │                   │
├─────────────────────┼───────────────────┼────────────┼───────────────────┤
│ conv2d_130 (Conv2D) │ (None, 7, 7, 160) │    143,360 │ activation_129[0… │
├─────────────────────┼───────────────────┼────────────┼───────────────────┤
│ batch_normalizatio… │ (None, 7, 7, 160) │        480 │ conv2d_130[0][0]  │
│ (BatchNormalizatio… │                   │            │                   │
├─────────────────────┼───────────────────┼────────────┼───────────────────┤
│ activation_130      │ (None, 7, 7, 160) │          0 │ batch_normalizat… │
│ (Activation)        │                   │            │                   │
├─────────────────────┼───────────────────┼────────────┼───────────────────┤
│ conv2d_128 (Conv2D) │ (None, 7, 7, 192) │    208,896 │ block17_13_ac[0]… │
├─────────────────────┼───────────────────┼────────────┼───────────────────┤
│ conv2d_131 (Conv2D) │ (None, 7, 7, 192) │    215,040 │ activation_130[0… │
├─────────────────────┼───────────────────┼────────────┼───────────────────┤
│ batch_normalizatio… │ (None, 7, 7, 192) │        576 │ conv2d_128[0][0]  │
│ (BatchNormalizatio… │                   │            │                   │
├─────────────────────┼───────────────────┼────────────┼───────────────────┤
│ batch_normalizatio… │ (None, 7, 7, 192) │        576 │ conv2d_131[0][0]  │
│ (BatchNormalizatio… │                   │            │                   │
├─────────────────────┼───────────────────┼────────────┼───────────────────┤
│ activation_128      │ (None, 7, 7, 192) │          0 │ batch_normalizat… │
│ (Activation)        │                   │            │                   │
├─────────────────────┼───────────────────┼────────────┼───────────────────┤
│ activation_131      │ (None, 7, 7, 192) │          0 │ batch_normalizat… │
│ (Activation)        │                   │            │                   │
├─────────────────────┼───────────────────┼────────────┼───────────────────┤
│ block17_14_mixed    │ (None, 7, 7, 384) │          0 │ activation_128[0… │
│ (Concatenate)       │                   │            │ activation_131[0… │
├─────────────────────┼───────────────────┼────────────┼───────────────────┤
│ block17_14_conv     │ (None, 7, 7,      │    418,880 │ block17_14_mixed… │
│ (Conv2D)            │ 1088)             │            │                   │
├─────────────────────┼───────────────────┼────────────┼───────────────────┤
│ custom_scale_layer… │ (None, 7, 7,      │          0 │ block17_13_ac[0]… │
│ (CustomScaleLayer)  │ 1088)             │            │ block17_14_conv[… │
├─────────────────────┼───────────────────┼────────────┼───────────────────┤
│ block17_14_ac       │ (None, 7, 7,      │          0 │ custom_scale_lay… │
│ (Activation)        │ 1088)             │            │                   │
├─────────────────────┼───────────────────┼────────────┼───────────────────┤
│ conv2d_133 (Conv2D) │ (None, 7, 7, 128) │    139,264 │ block17_14_ac[0]… │
├─────────────────────┼───────────────────┼────────────┼───────────────────┤
│ batch_normalizatio… │ (None, 7, 7, 128) │        384 │ conv2d_133[0][0]  │
│ (BatchNormalizatio… │                   │            │                   │
├─────────────────────┼───────────────────┼────────────┼───────────────────┤
│ activation_133      │ (None, 7, 7, 128) │          0 │ batch_normalizat… │
│ (Activation)        │                   │            │                   │
├─────────────────────┼───────────────────┼────────────┼───────────────────┤
│ conv2d_134 (Conv2D) │ (None, 7, 7, 160) │    143,360 │ activation_133[0… │
├─────────────────────┼───────────────────┼────────────┼───────────────────┤
│ batch_normalizatio… │ (None, 7, 7, 160) │        480 │ conv2d_134[0][0]  │
│ (BatchNormalizatio… │                   │            │                   │
├─────────────────────┼───────────────────┼────────────┼───────────────────┤
│ activation_134      │ (None, 7, 7, 160) │          0 │ batch_normalizat… │
│ (Activation)        │                   │            │                   │
├─────────────────────┼───────────────────┼────────────┼───────────────────┤
│ conv2d_132 (Conv2D) │ (None, 7, 7, 192) │    208,896 │ block17_14_ac[0]… │
├─────────────────────┼───────────────────┼────────────┼───────────────────┤
│ conv2d_135 (Conv2D) │ (None, 7, 7, 192) │    215,040 │ activation_134[0… │
├─────────────────────┼───────────────────┼────────────┼───────────────────┤
│ batch_normalizatio… │ (None, 7, 7, 192) │        576 │ conv2d_132[0][0]  │
│ (BatchNormalizatio… │                   │            │                   │
├─────────────────────┼───────────────────┼────────────┼───────────────────┤
│ batch_normalizatio… │ (None, 7, 7, 192) │        576 │ conv2d_135[0][0]  │
│ (BatchNormalizatio… │                   │            │                   │
├─────────────────────┼───────────────────┼────────────┼───────────────────┤
│ activation_132      │ (None, 7, 7, 192) │          0 │ batch_normalizat… │
│ (Activation)        │                   │            │                   │
├─────────────────────┼───────────────────┼────────────┼───────────────────┤
│ activation_135      │ (None, 7, 7, 192) │          0 │ batch_normalizat… │
│ (Activation)        │                   │            │                   │
├─────────────────────┼───────────────────┼────────────┼───────────────────┤
│ block17_15_mixed    │ (None, 7, 7, 384) │          0 │ activation_132[0… │
│ (Concatenate)       │                   │            │ activation_135[0… │
├─────────────────────┼───────────────────┼────────────┼───────────────────┤
│ block17_15_conv     │ (None, 7, 7,      │    418,880 │ block17_15_mixed… │
│ (Conv2D)            │ 1088)             │            │                   │
├─────────────────────┼───────────────────┼────────────┼───────────────────┤
│ custom_scale_layer… │ (None, 7, 7,      │          0 │ block17_14_ac[0]… │
│ (CustomScaleLayer)  │ 1088)             │            │ block17_15_conv[… │
├─────────────────────┼───────────────────┼────────────┼───────────────────┤
│ block17_15_ac       │ (None, 7, 7,      │          0 │ custom_scale_lay… │
│ (Activation)        │ 1088)             │            │                   │
├─────────────────────┼───────────────────┼────────────┼───────────────────┤
│ conv2d_137 (Conv2D) │ (None, 7, 7, 128) │    139,264 │ block17_15_ac[0]… │
├─────────────────────┼───────────────────┼────────────┼───────────────────┤
│ batch_normalizatio… │ (None, 7, 7, 128) │        384 │ conv2d_137[0][0]  │
│ (BatchNormalizatio… │                   │            │                   │
├─────────────────────┼───────────────────┼────────────┼───────────────────┤
│ activation_137      │ (None, 7, 7, 128) │          0 │ batch_normalizat… │
│ (Activation)        │                   │            │                   │
├─────────────────────┼───────────────────┼────────────┼───────────────────┤
│ conv2d_138 (Conv2D) │ (None, 7, 7, 160) │    143,360 │ activation_137[0… │
├─────────────────────┼───────────────────┼────────────┼───────────────────┤
│ batch_normalizatio… │ (None, 7, 7, 160) │        480 │ conv2d_138[0][0]  │
│ (BatchNormalizatio… │                   │            │                   │
├─────────────────────┼───────────────────┼────────────┼───────────────────┤
│ activation_138      │ (None, 7, 7, 160) │          0 │ batch_normalizat… │
│ (Activation)        │                   │            │                   │
├─────────────────────┼───────────────────┼────────────┼───────────────────┤
│ conv2d_136 (Conv2D) │ (None, 7, 7, 192) │    208,896 │ block17_15_ac[0]… │
├─────────────────────┼───────────────────┼────────────┼───────────────────┤
│ conv2d_139 (Conv2D) │ (None, 7, 7, 192) │    215,040 │ activation_138[0… │
├─────────────────────┼───────────────────┼────────────┼───────────────────┤
│ batch_normalizatio… │ (None, 7, 7, 192) │        576 │ conv2d_136[0][0]  │
│ (BatchNormalizatio… │                   │            │                   │
├─────────────────────┼───────────────────┼────────────┼───────────────────┤
│ batch_normalizatio… │ (None, 7, 7, 192) │        576 │ conv2d_139[0][0]  │
│ (BatchNormalizatio… │                   │            │                   │
├─────────────────────┼───────────────────┼────────────┼───────────────────┤
│ activation_136      │ (None, 7, 7, 192) │          0 │ batch_normalizat… │
│ (Activation)        │                   │            │                   │
├─────────────────────┼───────────────────┼────────────┼───────────────────┤
│ activation_139      │ (None, 7, 7, 192) │          0 │ batch_normalizat… │
│ (Activation)        │                   │            │                   │
├─────────────────────┼───────────────────┼────────────┼───────────────────┤
│ block17_16_mixed    │ (None, 7, 7, 384) │          0 │ activation_136[0… │
│ (Concatenate)       │                   │            │ activation_139[0… │
├─────────────────────┼───────────────────┼────────────┼───────────────────┤
│ block17_16_conv     │ (None, 7, 7,      │    418,880 │ block17_16_mixed… │
│ (Conv2D)            │ 1088)             │            │                   │
├─────────────────────┼───────────────────┼────────────┼───────────────────┤
│ custom_scale_layer… │ (None, 7, 7,      │          0 │ block17_15_ac[0]… │
│ (CustomScaleLayer)  │ 1088)             │            │ block17_16_conv[… │
├─────────────────────┼───────────────────┼────────────┼───────────────────┤
│ block17_16_ac       │ (None, 7, 7,      │          0 │ custom_scale_lay… │
│ (Activation)        │ 1088)             │            │                   │
├─────────────────────┼───────────────────┼────────────┼───────────────────┤
│ conv2d_141 (Conv2D) │ (None, 7, 7, 128) │    139,264 │ block17_16_ac[0]… │
├─────────────────────┼───────────────────┼────────────┼───────────────────┤
│ batch_normalizatio… │ (None, 7, 7, 128) │        384 │ conv2d_141[0][0]  │
│ (BatchNormalizatio… │                   │            │                   │
├─────────────────────┼───────────────────┼────────────┼───────────────────┤
│ activation_141      │ (None, 7, 7, 128) │          0 │ batch_normalizat… │
│ (Activation)        │                   │            │                   │
├─────────────────────┼───────────────────┼────────────┼───────────────────┤
│ conv2d_142 (Conv2D) │ (None, 7, 7, 160) │    143,360 │ activation_141[0… │
├─────────────────────┼───────────────────┼────────────┼───────────────────┤
│ batch_normalizatio… │ (None, 7, 7, 160) │        480 │ conv2d_142[0][0]  │
│ (BatchNormalizatio… │                   │            │                   │
├─────────────────────┼───────────────────┼────────────┼───────────────────┤
│ activation_142      │ (None, 7, 7, 160) │          0 │ batch_normalizat… │
│ (Activation)        │                   │            │                   │
├─────────────────────┼───────────────────┼────────────┼───────────────────┤
│ conv2d_140 (Conv2D) │ (None, 7, 7, 192) │    208,896 │ block17_16_ac[0]… │
├─────────────────────┼───────────────────┼────────────┼───────────────────┤
│ conv2d_143 (Conv2D) │ (None, 7, 7, 192) │    215,040 │ activation_142[0… │
├─────────────────────┼───────────────────┼────────────┼───────────────────┤
│ batch_normalizatio… │ (None, 7, 7, 192) │        576 │ conv2d_140[0][0]  │
│ (BatchNormalizatio… │                   │            │                   │
├─────────────────────┼───────────────────┼────────────┼───────────────────┤
│ batch_normalizatio… │ (None, 7, 7, 192) │        576 │ conv2d_143[0][0]  │
│ (BatchNormalizatio… │                   │            │                   │
├─────────────────────┼───────────────────┼────────────┼───────────────────┤
│ activation_140      │ (None, 7, 7, 192) │          0 │ batch_normalizat… │
│ (Activation)        │                   │            │                   │
├─────────────────────┼───────────────────┼────────────┼───────────────────┤
│ activation_143      │ (None, 7, 7, 192) │          0 │ batch_normalizat… │
│ (Activation)        │                   │            │                   │
├─────────────────────┼───────────────────┼────────────┼───────────────────┤
│ block17_17_mixed    │ (None, 7, 7, 384) │          0 │ activation_140[0… │
│ (Concatenate)       │                   │            │ activation_143[0… │
├─────────────────────┼───────────────────┼────────────┼───────────────────┤
│ block17_17_conv     │ (None, 7, 7,      │    418,880 │ block17_17_mixed… │
│ (Conv2D)            │ 1088)             │            │                   │
├─────────────────────┼───────────────────┼────────────┼───────────────────┤
│ custom_scale_layer… │ (None, 7, 7,      │          0 │ block17_16_ac[0]… │
│ (CustomScaleLayer)  │ 1088)             │            │ block17_17_conv[… │
├─────────────────────┼───────────────────┼────────────┼───────────────────┤
│ block17_17_ac       │ (None, 7, 7,      │          0 │ custom_scale_lay… │
│ (Activation)        │ 1088)             │            │                   │
├─────────────────────┼───────────────────┼────────────┼───────────────────┤
│ conv2d_145 (Conv2D) │ (None, 7, 7, 128) │    139,264 │ block17_17_ac[0]… │
├─────────────────────┼───────────────────┼────────────┼───────────────────┤
│ batch_normalizatio… │ (None, 7, 7, 128) │        384 │ conv2d_145[0][0]  │
│ (BatchNormalizatio… │                   │            │                   │
├─────────────────────┼───────────────────┼────────────┼───────────────────┤
│ activation_145      │ (None, 7, 7, 128) │          0 │ batch_normalizat… │
│ (Activation)        │                   │            │                   │
├─────────────────────┼───────────────────┼────────────┼───────────────────┤
│ conv2d_146 (Conv2D) │ (None, 7, 7, 160) │    143,360 │ activation_145[0… │
├─────────────────────┼───────────────────┼────────────┼───────────────────┤
│ batch_normalizatio… │ (None, 7, 7, 160) │        480 │ conv2d_146[0][0]  │
│ (BatchNormalizatio… │                   │            │                   │
├─────────────────────┼───────────────────┼────────────┼───────────────────┤
│ activation_146      │ (None, 7, 7, 160) │          0 │ batch_normalizat… │
│ (Activation)        │                   │            │                   │
├─────────────────────┼───────────────────┼────────────┼───────────────────┤
│ conv2d_144 (Conv2D) │ (None, 7, 7, 192) │    208,896 │ block17_17_ac[0]… │
├─────────────────────┼───────────────────┼────────────┼───────────────────┤
│ conv2d_147 (Conv2D) │ (None, 7, 7, 192) │    215,040 │ activation_146[0… │
├─────────────────────┼───────────────────┼────────────┼───────────────────┤
│ batch_normalizatio… │ (None, 7, 7, 192) │        576 │ conv2d_144[0][0]  │
│ (BatchNormalizatio… │                   │            │                   │
├─────────────────────┼───────────────────┼────────────┼───────────────────┤
│ batch_normalizatio… │ (None, 7, 7, 192) │        576 │ conv2d_147[0][0]  │
│ (BatchNormalizatio… │                   │            │                   │
├─────────────────────┼───────────────────┼────────────┼───────────────────┤
│ activation_144      │ (None, 7, 7, 192) │          0 │ batch_normalizat… │
│ (Activation)        │                   │            │                   │
├─────────────────────┼───────────────────┼────────────┼───────────────────┤
│ activation_147      │ (None, 7, 7, 192) │          0 │ batch_normalizat… │
│ (Activation)        │                   │            │                   │
├─────────────────────┼───────────────────┼────────────┼───────────────────┤
│ block17_18_mixed    │ (None, 7, 7, 384) │          0 │ activation_144[0… │
│ (Concatenate)       │                   │            │ activation_147[0… │
├─────────────────────┼───────────────────┼────────────┼───────────────────┤
│ block17_18_conv     │ (None, 7, 7,      │    418,880 │ block17_18_mixed… │
│ (Conv2D)            │ 1088)             │            │                   │
├─────────────────────┼───────────────────┼────────────┼───────────────────┤
│ custom_scale_layer… │ (None, 7, 7,      │          0 │ block17_17_ac[0]… │
│ (CustomScaleLayer)  │ 1088)             │            │ block17_18_conv[… │
├─────────────────────┼───────────────────┼────────────┼───────────────────┤
│ block17_18_ac       │ (None, 7, 7,      │          0 │ custom_scale_lay… │
│ (Activation)        │ 1088)             │            │                   │
├─────────────────────┼───────────────────┼────────────┼───────────────────┤
│ conv2d_149 (Conv2D) │ (None, 7, 7, 128) │    139,264 │ block17_18_ac[0]… │
├─────────────────────┼───────────────────┼────────────┼───────────────────┤
│ batch_normalizatio… │ (None, 7, 7, 128) │        384 │ conv2d_149[0][0]  │
│ (BatchNormalizatio… │                   │            │                   │
├─────────────────────┼───────────────────┼────────────┼───────────────────┤
│ activation_149      │ (None, 7, 7, 128) │          0 │ batch_normalizat… │
│ (Activation)        │                   │            │                   │
├─────────────────────┼───────────────────┼────────────┼───────────────────┤
│ conv2d_150 (Conv2D) │ (None, 7, 7, 160) │    143,360 │ activation_149[0… │
├─────────────────────┼───────────────────┼────────────┼───────────────────┤
│ batch_normalizatio… │ (None, 7, 7, 160) │        480 │ conv2d_150[0][0]  │
│ (BatchNormalizatio… │                   │            │                   │
├─────────────────────┼───────────────────┼────────────┼───────────────────┤
│ activation_150      │ (None, 7, 7, 160) │          0 │ batch_normalizat… │
│ (Activation)        │                   │            │                   │
├─────────────────────┼───────────────────┼────────────┼───────────────────┤
│ conv2d_148 (Conv2D) │ (None, 7, 7, 192) │    208,896 │ block17_18_ac[0]… │
├─────────────────────┼───────────────────┼────────────┼───────────────────┤
│ conv2d_151 (Conv2D) │ (None, 7, 7, 192) │    215,040 │ activation_150[0… │
├─────────────────────┼───────────────────┼────────────┼───────────────────┤
│ batch_normalizatio… │ (None, 7, 7, 192) │        576 │ conv2d_148[0][0]  │
│ (BatchNormalizatio… │                   │            │                   │
├─────────────────────┼───────────────────┼────────────┼───────────────────┤
│ batch_normalizatio… │ (None, 7, 7, 192) │        576 │ conv2d_151[0][0]  │
│ (BatchNormalizatio… │                   │            │                   │
├─────────────────────┼───────────────────┼────────────┼───────────────────┤
│ activation_148      │ (None, 7, 7, 192) │          0 │ batch_normalizat… │
│ (Activation)        │                   │            │                   │
├─────────────────────┼───────────────────┼────────────┼───────────────────┤
│ activation_151      │ (None, 7, 7, 192) │          0 │ batch_normalizat… │
│ (Activation)        │                   │            │                   │
├─────────────────────┼───────────────────┼────────────┼───────────────────┤
│ block17_19_mixed    │ (None, 7, 7, 384) │          0 │ activation_148[0… │
│ (Concatenate)       │                   │            │ activation_151[0… │
├─────────────────────┼───────────────────┼────────────┼───────────────────┤
│ block17_19_conv     │ (None, 7, 7,      │    418,880 │ block17_19_mixed… │
│ (Conv2D)            │ 1088)             │            │                   │
├─────────────────────┼───────────────────┼────────────┼───────────────────┤
│ custom_scale_layer… │ (None, 7, 7,      │          0 │ block17_18_ac[0]… │
│ (CustomScaleLayer)  │ 1088)             │            │ block17_19_conv[… │
├─────────────────────┼───────────────────┼────────────┼───────────────────┤
│ block17_19_ac       │ (None, 7, 7,      │          0 │ custom_scale_lay… │
│ (Activation)        │ 1088)             │            │                   │
├─────────────────────┼───────────────────┼────────────┼───────────────────┤
│ conv2d_153 (Conv2D) │ (None, 7, 7, 128) │    139,264 │ block17_19_ac[0]… │
├─────────────────────┼───────────────────┼────────────┼───────────────────┤
│ batch_normalizatio… │ (None, 7, 7, 128) │        384 │ conv2d_153[0][0]  │
│ (BatchNormalizatio… │                   │            │                   │
├─────────────────────┼───────────────────┼────────────┼───────────────────┤
│ activation_153      │ (None, 7, 7, 128) │          0 │ batch_normalizat… │
│ (Activation)        │                   │            │                   │
├─────────────────────┼───────────────────┼────────────┼───────────────────┤
│ conv2d_154 (Conv2D) │ (None, 7, 7, 160) │    143,360 │ activation_153[0… │
├─────────────────────┼───────────────────┼────────────┼───────────────────┤
│ batch_normalizatio… │ (None, 7, 7, 160) │        480 │ conv2d_154[0][0]  │
│ (BatchNormalizatio… │                   │            │                   │
├─────────────────────┼───────────────────┼────────────┼───────────────────┤
│ activation_154      │ (None, 7, 7, 160) │          0 │ batch_normalizat… │
│ (Activation)        │                   │            │                   │
├─────────────────────┼───────────────────┼────────────┼───────────────────┤
│ conv2d_152 (Conv2D) │ (None, 7, 7, 192) │    208,896 │ block17_19_ac[0]… │
├─────────────────────┼───────────────────┼────────────┼───────────────────┤
│ conv2d_155 (Conv2D) │ (None, 7, 7, 192) │    215,040 │ activation_154[0… │
├─────────────────────┼───────────────────┼────────────┼───────────────────┤
│ batch_normalizatio… │ (None, 7, 7, 192) │        576 │ conv2d_152[0][0]  │
│ (BatchNormalizatio… │                   │            │                   │
├─────────────────────┼───────────────────┼────────────┼───────────────────┤
│ batch_normalizatio… │ (None, 7, 7, 192) │        576 │ conv2d_155[0][0]  │
│ (BatchNormalizatio… │                   │            │                   │
├─────────────────────┼───────────────────┼────────────┼───────────────────┤
│ activation_152      │ (None, 7, 7, 192) │          0 │ batch_normalizat… │
│ (Activation)        │                   │            │                   │
├─────────────────────┼───────────────────┼────────────┼───────────────────┤
│ activation_155      │ (None, 7, 7, 192) │          0 │ batch_normalizat… │
│ (Activation)        │                   │            │                   │
├─────────────────────┼───────────────────┼────────────┼───────────────────┤
│ block17_20_mixed    │ (None, 7, 7, 384) │          0 │ activation_152[0… │
│ (Concatenate)       │                   │            │ activation_155[0… │
├─────────────────────┼───────────────────┼────────────┼───────────────────┤
│ block17_20_conv     │ (None, 7, 7,      │    418,880 │ block17_20_mixed… │
│ (Conv2D)            │ 1088)             │            │                   │
├─────────────────────┼───────────────────┼────────────┼───────────────────┤
│ custom_scale_layer… │ (None, 7, 7,      │          0 │ block17_19_ac[0]… │
│ (CustomScaleLayer)  │ 1088)             │            │ block17_20_conv[… │
├─────────────────────┼───────────────────┼────────────┼───────────────────┤
│ block17_20_ac       │ (None, 7, 7,      │          0 │ custom_scale_lay… │
│ (Activation)        │ 1088)             │            │                   │
├─────────────────────┼───────────────────┼────────────┼───────────────────┤
│ conv2d_160 (Conv2D) │ (None, 7, 7, 256) │    278,528 │ block17_20_ac[0]… │
├─────────────────────┼───────────────────┼────────────┼───────────────────┤
│ batch_normalizatio… │ (None, 7, 7, 256) │        768 │ conv2d_160[0][0]  │
│ (BatchNormalizatio… │                   │            │                   │
├─────────────────────┼───────────────────┼────────────┼───────────────────┤
│ activation_160      │ (None, 7, 7, 256) │          0 │ batch_normalizat… │
│ (Activation)        │                   │            │                   │
├─────────────────────┼───────────────────┼────────────┼───────────────────┤
│ conv2d_156 (Conv2D) │ (None, 7, 7, 256) │    278,528 │ block17_20_ac[0]… │
├─────────────────────┼───────────────────┼────────────┼───────────────────┤
│ conv2d_158 (Conv2D) │ (None, 7, 7, 256) │    278,528 │ block17_20_ac[0]… │
├─────────────────────┼───────────────────┼────────────┼───────────────────┤
│ conv2d_161 (Conv2D) │ (None, 7, 7, 288) │    663,552 │ activation_160[0… │
├─────────────────────┼───────────────────┼────────────┼───────────────────┤
│ batch_normalizatio… │ (None, 7, 7, 256) │        768 │ conv2d_156[0][0]  │
│ (BatchNormalizatio… │                   │            │                   │
├─────────────────────┼───────────────────┼────────────┼───────────────────┤
│ batch_normalizatio… │ (None, 7, 7, 256) │        768 │ conv2d_158[0][0]  │
│ (BatchNormalizatio… │                   │            │                   │
├─────────────────────┼───────────────────┼────────────┼───────────────────┤
│ batch_normalizatio… │ (None, 7, 7, 288) │        864 │ conv2d_161[0][0]  │
│ (BatchNormalizatio… │                   │            │                   │
├─────────────────────┼───────────────────┼────────────┼───────────────────┤
│ activation_156      │ (None, 7, 7, 256) │          0 │ batch_normalizat… │
│ (Activation)        │                   │            │                   │
├─────────────────────┼───────────────────┼────────────┼───────────────────┤
│ activation_158      │ (None, 7, 7, 256) │          0 │ batch_normalizat… │
│ (Activation)        │                   │            │                   │
├─────────────────────┼───────────────────┼────────────┼───────────────────┤
│ activation_161      │ (None, 7, 7, 288) │          0 │ batch_normalizat… │
│ (Activation)        │                   │            │                   │
├─────────────────────┼───────────────────┼────────────┼───────────────────┤
│ conv2d_157 (Conv2D) │ (None, 3, 3, 384) │    884,736 │ activation_156[0… │
├─────────────────────┼───────────────────┼────────────┼───────────────────┤
│ conv2d_159 (Conv2D) │ (None, 3, 3, 288) │    663,552 │ activation_158[0… │
├─────────────────────┼───────────────────┼────────────┼───────────────────┤
│ conv2d_162 (Conv2D) │ (None, 3, 3, 320) │    829,440 │ activation_161[0… │
├─────────────────────┼───────────────────┼────────────┼───────────────────┤
│ batch_normalizatio… │ (None, 3, 3, 384) │      1,152 │ conv2d_157[0][0]  │
│ (BatchNormalizatio… │                   │            │                   │
├─────────────────────┼───────────────────┼────────────┼───────────────────┤
│ batch_normalizatio… │ (None, 3, 3, 288) │        864 │ conv2d_159[0][0]  │
│ (BatchNormalizatio… │                   │            │                   │
├─────────────────────┼───────────────────┼────────────┼───────────────────┤
│ batch_normalizatio… │ (None, 3, 3, 320) │        960 │ conv2d_162[0][0]  │
│ (BatchNormalizatio… │                   │            │                   │
├─────────────────────┼───────────────────┼────────────┼───────────────────┤
│ activation_157      │ (None, 3, 3, 384) │          0 │ batch_normalizat… │
│ (Activation)        │                   │            │                   │
├─────────────────────┼───────────────────┼────────────┼───────────────────┤
│ activation_159      │ (None, 3, 3, 288) │          0 │ batch_normalizat… │
│ (Activation)        │                   │            │                   │
├─────────────────────┼───────────────────┼────────────┼───────────────────┤
│ activation_162      │ (None, 3, 3, 320) │          0 │ batch_normalizat… │
│ (Activation)        │                   │            │                   │
├─────────────────────┼───────────────────┼────────────┼───────────────────┤
│ max_pooling2d_3     │ (None, 3, 3,      │          0 │ block17_20_ac[0]… │
│ (MaxPooling2D)      │ 1088)             │            │                   │
├─────────────────────┼───────────────────┼────────────┼───────────────────┤
│ mixed_7a            │ (None, 3, 3,      │          0 │ activation_157[0… │
│ (Concatenate)       │ 2080)             │            │ activation_159[0… │
│                     │                   │            │ activation_162[0… │
│                     │                   │            │ max_pooling2d_3[… │
├─────────────────────┼───────────────────┼────────────┼───────────────────┤
│ conv2d_164 (Conv2D) │ (None, 3, 3, 192) │    399,360 │ mixed_7a[0][0]    │
├─────────────────────┼───────────────────┼────────────┼───────────────────┤
│ batch_normalizatio… │ (None, 3, 3, 192) │        576 │ conv2d_164[0][0]  │
│ (BatchNormalizatio… │                   │            │                   │
├─────────────────────┼───────────────────┼────────────┼───────────────────┤
│ activation_164      │ (None, 3, 3, 192) │          0 │ batch_normalizat… │
│ (Activation)        │                   │            │                   │
├─────────────────────┼───────────────────┼────────────┼───────────────────┤
│ conv2d_165 (Conv2D) │ (None, 3, 3, 224) │    129,024 │ activation_164[0… │
├─────────────────────┼───────────────────┼────────────┼───────────────────┤
│ batch_normalizatio… │ (None, 3, 3, 224) │        672 │ conv2d_165[0][0]  │
│ (BatchNormalizatio… │                   │            │                   │
├─────────────────────┼───────────────────┼────────────┼───────────────────┤
│ activation_165      │ (None, 3, 3, 224) │          0 │ batch_normalizat… │
│ (Activation)        │                   │            │                   │
├─────────────────────┼───────────────────┼────────────┼───────────────────┤
│ conv2d_163 (Conv2D) │ (None, 3, 3, 192) │    399,360 │ mixed_7a[0][0]    │
├─────────────────────┼───────────────────┼────────────┼───────────────────┤
│ conv2d_166 (Conv2D) │ (None, 3, 3, 256) │    172,032 │ activation_165[0… │
├─────────────────────┼───────────────────┼────────────┼───────────────────┤
│ batch_normalizatio… │ (None, 3, 3, 192) │        576 │ conv2d_163[0][0]  │
│ (BatchNormalizatio… │                   │            │                   │
├─────────────────────┼───────────────────┼────────────┼───────────────────┤
│ batch_normalizatio… │ (None, 3, 3, 256) │        768 │ conv2d_166[0][0]  │
│ (BatchNormalizatio… │                   │            │                   │
├─────────────────────┼───────────────────┼────────────┼───────────────────┤
│ activation_163      │ (None, 3, 3, 192) │          0 │ batch_normalizat… │
│ (Activation)        │                   │            │                   │
├─────────────────────┼───────────────────┼────────────┼───────────────────┤
│ activation_166      │ (None, 3, 3, 256) │          0 │ batch_normalizat… │
│ (Activation)        │                   │            │                   │
├─────────────────────┼───────────────────┼────────────┼───────────────────┤
│ block8_1_mixed      │ (None, 3, 3, 448) │          0 │ activation_163[0… │
│ (Concatenate)       │                   │            │ activation_166[0… │
├─────────────────────┼───────────────────┼────────────┼───────────────────┤
│ block8_1_conv       │ (None, 3, 3,      │    933,920 │ block8_1_mixed[0… │
│ (Conv2D)            │ 2080)             │            │                   │
├─────────────────────┼───────────────────┼────────────┼───────────────────┤
│ custom_scale_layer… │ (None, 3, 3,      │          0 │ mixed_7a[0][0],   │
│ (CustomScaleLayer)  │ 2080)             │            │ block8_1_conv[0]… │
├─────────────────────┼───────────────────┼────────────┼───────────────────┤
│ block8_1_ac         │ (None, 3, 3,      │          0 │ custom_scale_lay… │
│ (Activation)        │ 2080)             │            │                   │
├─────────────────────┼───────────────────┼────────────┼───────────────────┤
│ conv2d_168 (Conv2D) │ (None, 3, 3, 192) │    399,360 │ block8_1_ac[0][0] │
├─────────────────────┼───────────────────┼────────────┼───────────────────┤
│ batch_normalizatio… │ (None, 3, 3, 192) │        576 │ conv2d_168[0][0]  │
│ (BatchNormalizatio… │                   │            │                   │
├─────────────────────┼───────────────────┼────────────┼───────────────────┤
│ activation_168      │ (None, 3, 3, 192) │          0 │ batch_normalizat… │
│ (Activation)        │                   │            │                   │
├─────────────────────┼───────────────────┼────────────┼───────────────────┤
│ conv2d_169 (Conv2D) │ (None, 3, 3, 224) │    129,024 │ activation_168[0… │
├─────────────────────┼───────────────────┼────────────┼───────────────────┤
│ batch_normalizatio… │ (None, 3, 3, 224) │        672 │ conv2d_169[0][0]  │
│ (BatchNormalizatio… │                   │            │                   │
├─────────────────────┼───────────────────┼────────────┼───────────────────┤
│ activation_169      │ (None, 3, 3, 224) │          0 │ batch_normalizat… │
│ (Activation)        │                   │            │                   │
├─────────────────────┼───────────────────┼────────────┼───────────────────┤
│ conv2d_167 (Conv2D) │ (None, 3, 3, 192) │    399,360 │ block8_1_ac[0][0] │
├─────────────────────┼───────────────────┼────────────┼───────────────────┤
│ conv2d_170 (Conv2D) │ (None, 3, 3, 256) │    172,032 │ activation_169[0… │
├─────────────────────┼───────────────────┼────────────┼───────────────────┤
│ batch_normalizatio… │ (None, 3, 3, 192) │        576 │ conv2d_167[0][0]  │
│ (BatchNormalizatio… │                   │            │                   │
├─────────────────────┼───────────────────┼────────────┼───────────────────┤
│ batch_normalizatio… │ (None, 3, 3, 256) │        768 │ conv2d_170[0][0]  │
│ (BatchNormalizatio… │                   │            │                   │
├─────────────────────┼───────────────────┼────────────┼───────────────────┤
│ activation_167      │ (None, 3, 3, 192) │          0 │ batch_normalizat… │
│ (Activation)        │                   │            │                   │
├─────────────────────┼───────────────────┼────────────┼───────────────────┤
│ activation_170      │ (None, 3, 3, 256) │          0 │ batch_normalizat… │
│ (Activation)        │                   │            │                   │
├─────────────────────┼───────────────────┼────────────┼───────────────────┤
│ block8_2_mixed      │ (None, 3, 3, 448) │          0 │ activation_167[0… │
│ (Concatenate)       │                   │            │ activation_170[0… │
├─────────────────────┼───────────────────┼────────────┼───────────────────┤
│ block8_2_conv       │ (None, 3, 3,      │    933,920 │ block8_2_mixed[0… │
│ (Conv2D)            │ 2080)             │            │                   │
├─────────────────────┼───────────────────┼────────────┼───────────────────┤
│ custom_scale_layer… │ (None, 3, 3,      │          0 │ block8_1_ac[0][0… │
│ (CustomScaleLayer)  │ 2080)             │            │ block8_2_conv[0]… │
├─────────────────────┼───────────────────┼────────────┼───────────────────┤
│ block8_2_ac         │ (None, 3, 3,      │          0 │ custom_scale_lay… │
│ (Activation)        │ 2080)             │            │                   │
├─────────────────────┼───────────────────┼────────────┼───────────────────┤
│ conv2d_172 (Conv2D) │ (None, 3, 3, 192) │    399,360 │ block8_2_ac[0][0] │
├─────────────────────┼───────────────────┼────────────┼───────────────────┤
│ batch_normalizatio… │ (None, 3, 3, 192) │        576 │ conv2d_172[0][0]  │
│ (BatchNormalizatio… │                   │            │                   │
├─────────────────────┼───────────────────┼────────────┼───────────────────┤
│ activation_172      │ (None, 3, 3, 192) │          0 │ batch_normalizat… │
│ (Activation)        │                   │            │                   │
├─────────────────────┼───────────────────┼────────────┼───────────────────┤
│ conv2d_173 (Conv2D) │ (None, 3, 3, 224) │    129,024 │ activation_172[0… │
├─────────────────────┼───────────────────┼────────────┼───────────────────┤
│ batch_normalizatio… │ (None, 3, 3, 224) │        672 │ conv2d_173[0][0]  │
│ (BatchNormalizatio… │                   │            │                   │
├─────────────────────┼───────────────────┼────────────┼───────────────────┤
│ activation_173      │ (None, 3, 3, 224) │          0 │ batch_normalizat… │
│ (Activation)        │                   │            │                   │
├─────────────────────┼───────────────────┼────────────┼───────────────────┤
│ conv2d_171 (Conv2D) │ (None, 3, 3, 192) │    399,360 │ block8_2_ac[0][0] │
├─────────────────────┼───────────────────┼────────────┼───────────────────┤
│ conv2d_174 (Conv2D) │ (None, 3, 3, 256) │    172,032 │ activation_173[0… │
├─────────────────────┼───────────────────┼────────────┼───────────────────┤
│ batch_normalizatio… │ (None, 3, 3, 192) │        576 │ conv2d_171[0][0]  │
│ (BatchNormalizatio… │                   │            │                   │
├─────────────────────┼───────────────────┼────────────┼───────────────────┤
│ batch_normalizatio… │ (None, 3, 3, 256) │        768 │ conv2d_174[0][0]  │
│ (BatchNormalizatio… │                   │            │                   │
├─────────────────────┼───────────────────┼────────────┼───────────────────┤
│ activation_171      │ (None, 3, 3, 192) │          0 │ batch_normalizat… │
│ (Activation)        │                   │            │                   │
├─────────────────────┼───────────────────┼────────────┼───────────────────┤
│ activation_174      │ (None, 3, 3, 256) │          0 │ batch_normalizat… │
│ (Activation)        │                   │            │                   │
├─────────────────────┼───────────────────┼────────────┼───────────────────┤
│ block8_3_mixed      │ (None, 3, 3, 448) │          0 │ activation_171[0… │
│ (Concatenate)       │                   │            │ activation_174[0… │
├─────────────────────┼───────────────────┼────────────┼───────────────────┤
│ block8_3_conv       │ (None, 3, 3,      │    933,920 │ block8_3_mixed[0… │
│ (Conv2D)            │ 2080)             │            │                   │
├─────────────────────┼───────────────────┼────────────┼───────────────────┤
│ custom_scale_layer… │ (None, 3, 3,      │          0 │ block8_2_ac[0][0… │
│ (CustomScaleLayer)  │ 2080)             │            │ block8_3_conv[0]… │
├─────────────────────┼───────────────────┼────────────┼───────────────────┤
│ block8_3_ac         │ (None, 3, 3,      │          0 │ custom_scale_lay… │
│ (Activation)        │ 2080)             │            │                   │
├─────────────────────┼───────────────────┼────────────┼───────────────────┤
│ conv2d_176 (Conv2D) │ (None, 3, 3, 192) │    399,360 │ block8_3_ac[0][0] │
├─────────────────────┼───────────────────┼────────────┼───────────────────┤
│ batch_normalizatio… │ (None, 3, 3, 192) │        576 │ conv2d_176[0][0]  │
│ (BatchNormalizatio… │                   │            │                   │
├─────────────────────┼───────────────────┼────────────┼───────────────────┤
│ activation_176      │ (None, 3, 3, 192) │          0 │ batch_normalizat… │
│ (Activation)        │                   │            │                   │
├─────────────────────┼───────────────────┼────────────┼───────────────────┤
│ conv2d_177 (Conv2D) │ (None, 3, 3, 224) │    129,024 │ activation_176[0… │
├─────────────────────┼───────────────────┼────────────┼───────────────────┤
│ batch_normalizatio… │ (None, 3, 3, 224) │        672 │ conv2d_177[0][0]  │
│ (BatchNormalizatio… │                   │            │                   │
├─────────────────────┼───────────────────┼────────────┼───────────────────┤
│ activation_177      │ (None, 3, 3, 224) │          0 │ batch_normalizat… │
│ (Activation)        │                   │            │                   │
├─────────────────────┼───────────────────┼────────────┼───────────────────┤
│ conv2d_175 (Conv2D) │ (None, 3, 3, 192) │    399,360 │ block8_3_ac[0][0] │
├─────────────────────┼───────────────────┼────────────┼───────────────────┤
│ conv2d_178 (Conv2D) │ (None, 3, 3, 256) │    172,032 │ activation_177[0… │
├─────────────────────┼───────────────────┼────────────┼───────────────────┤
│ batch_normalizatio… │ (None, 3, 3, 192) │        576 │ conv2d_175[0][0]  │
│ (BatchNormalizatio… │                   │            │                   │
├─────────────────────┼───────────────────┼────────────┼───────────────────┤
│ batch_normalizatio… │ (None, 3, 3, 256) │        768 │ conv2d_178[0][0]  │
│ (BatchNormalizatio… │                   │            │                   │
├─────────────────────┼───────────────────┼────────────┼───────────────────┤
│ activation_175      │ (None, 3, 3, 192) │          0 │ batch_normalizat… │
│ (Activation)        │                   │            │                   │
├─────────────────────┼───────────────────┼────────────┼───────────────────┤
│ activation_178      │ (None, 3, 3, 256) │          0 │ batch_normalizat… │
│ (Activation)        │                   │            │                   │
├─────────────────────┼───────────────────┼────────────┼───────────────────┤
│ block8_4_mixed      │ (None, 3, 3, 448) │          0 │ activation_175[0… │
│ (Concatenate)       │                   │            │ activation_178[0… │
├─────────────────────┼───────────────────┼────────────┼───────────────────┤
│ block8_4_conv       │ (None, 3, 3,      │    933,920 │ block8_4_mixed[0… │
│ (Conv2D)            │ 2080)             │            │                   │
├─────────────────────┼───────────────────┼────────────┼───────────────────┤
│ custom_scale_layer… │ (None, 3, 3,      │          0 │ block8_3_ac[0][0… │
│ (CustomScaleLayer)  │ 2080)             │            │ block8_4_conv[0]… │
├─────────────────────┼───────────────────┼────────────┼───────────────────┤
│ block8_4_ac         │ (None, 3, 3,      │          0 │ custom_scale_lay… │
│ (Activation)        │ 2080)             │            │                   │
├─────────────────────┼───────────────────┼────────────┼───────────────────┤
│ conv2d_180 (Conv2D) │ (None, 3, 3, 192) │    399,360 │ block8_4_ac[0][0] │
├─────────────────────┼───────────────────┼────────────┼───────────────────┤
│ batch_normalizatio… │ (None, 3, 3, 192) │        576 │ conv2d_180[0][0]  │
│ (BatchNormalizatio… │                   │            │                   │
├─────────────────────┼───────────────────┼────────────┼───────────────────┤
│ activation_180      │ (None, 3, 3, 192) │          0 │ batch_normalizat… │
│ (Activation)        │                   │            │                   │
├─────────────────────┼───────────────────┼────────────┼───────────────────┤
│ conv2d_181 (Conv2D) │ (None, 3, 3, 224) │    129,024 │ activation_180[0… │
├─────────────────────┼───────────────────┼────────────┼───────────────────┤
│ batch_normalizatio… │ (None, 3, 3, 224) │        672 │ conv2d_181[0][0]  │
│ (BatchNormalizatio… │                   │            │                   │
├─────────────────────┼───────────────────┼────────────┼───────────────────┤
│ activation_181      │ (None, 3, 3, 224) │          0 │ batch_normalizat… │
│ (Activation)        │                   │            │                   │
├─────────────────────┼───────────────────┼────────────┼───────────────────┤
│ conv2d_179 (Conv2D) │ (None, 3, 3, 192) │    399,360 │ block8_4_ac[0][0] │
├─────────────────────┼───────────────────┼────────────┼───────────────────┤
│ conv2d_182 (Conv2D) │ (None, 3, 3, 256) │    172,032 │ activation_181[0… │
├─────────────────────┼───────────────────┼────────────┼───────────────────┤
│ batch_normalizatio… │ (None, 3, 3, 192) │        576 │ conv2d_179[0][0]  │
│ (BatchNormalizatio… │                   │            │                   │
├─────────────────────┼───────────────────┼────────────┼───────────────────┤
│ batch_normalizatio… │ (None, 3, 3, 256) │        768 │ conv2d_182[0][0]  │
│ (BatchNormalizatio… │                   │            │                   │
├─────────────────────┼───────────────────┼────────────┼───────────────────┤
│ activation_179      │ (None, 3, 3, 192) │          0 │ batch_normalizat… │
│ (Activation)        │                   │            │                   │
├─────────────────────┼───────────────────┼────────────┼───────────────────┤
│ activation_182      │ (None, 3, 3, 256) │          0 │ batch_normalizat… │
│ (Activation)        │                   │            │                   │
├─────────────────────┼───────────────────┼────────────┼───────────────────┤
│ block8_5_mixed      │ (None, 3, 3, 448) │          0 │ activation_179[0… │
│ (Concatenate)       │                   │            │ activation_182[0… │
├─────────────────────┼───────────────────┼────────────┼───────────────────┤
│ block8_5_conv       │ (None, 3, 3,      │    933,920 │ block8_5_mixed[0… │
│ (Conv2D)            │ 2080)             │            │                   │
├─────────────────────┼───────────────────┼────────────┼───────────────────┤
│ custom_scale_layer… │ (None, 3, 3,      │          0 │ block8_4_ac[0][0… │
│ (CustomScaleLayer)  │ 2080)             │            │ block8_5_conv[0]… │
├─────────────────────┼───────────────────┼────────────┼───────────────────┤
│ block8_5_ac         │ (None, 3, 3,      │          0 │ custom_scale_lay… │
│ (Activation)        │ 2080)             │            │                   │
├─────────────────────┼───────────────────┼────────────┼───────────────────┤
│ conv2d_184 (Conv2D) │ (None, 3, 3, 192) │    399,360 │ block8_5_ac[0][0] │
├─────────────────────┼───────────────────┼────────────┼───────────────────┤
│ batch_normalizatio… │ (None, 3, 3, 192) │        576 │ conv2d_184[0][0]  │
│ (BatchNormalizatio… │                   │            │                   │
├─────────────────────┼───────────────────┼────────────┼───────────────────┤
│ activation_184      │ (None, 3, 3, 192) │          0 │ batch_normalizat… │
│ (Activation)        │                   │            │                   │
├─────────────────────┼───────────────────┼────────────┼───────────────────┤
│ conv2d_185 (Conv2D) │ (None, 3, 3, 224) │    129,024 │ activation_184[0… │
├─────────────────────┼───────────────────┼────────────┼───────────────────┤
│ batch_normalizatio… │ (None, 3, 3, 224) │        672 │ conv2d_185[0][0]  │
│ (BatchNormalizatio… │                   │            │                   │
├─────────────────────┼───────────────────┼────────────┼───────────────────┤
│ activation_185      │ (None, 3, 3, 224) │          0 │ batch_normalizat… │
│ (Activation)        │                   │            │                   │
├─────────────────────┼───────────────────┼────────────┼───────────────────┤
│ conv2d_183 (Conv2D) │ (None, 3, 3, 192) │    399,360 │ block8_5_ac[0][0] │
├─────────────────────┼───────────────────┼────────────┼───────────────────┤
│ conv2d_186 (Conv2D) │ (None, 3, 3, 256) │    172,032 │ activation_185[0… │
├─────────────────────┼───────────────────┼────────────┼───────────────────┤
│ batch_normalizatio… │ (None, 3, 3, 192) │        576 │ conv2d_183[0][0]  │
│ (BatchNormalizatio… │                   │            │                   │
├─────────────────────┼───────────────────┼────────────┼───────────────────┤
│ batch_normalizatio… │ (None, 3, 3, 256) │        768 │ conv2d_186[0][0]  │
│ (BatchNormalizatio… │                   │            │                   │
├─────────────────────┼───────────────────┼────────────┼───────────────────┤
│ activation_183      │ (None, 3, 3, 192) │          0 │ batch_normalizat… │
│ (Activation)        │                   │            │                   │
├─────────────────────┼───────────────────┼────────────┼───────────────────┤
│ activation_186      │ (None, 3, 3, 256) │          0 │ batch_normalizat… │
│ (Activation)        │                   │            │                   │
├─────────────────────┼───────────────────┼────────────┼───────────────────┤
│ block8_6_mixed      │ (None, 3, 3, 448) │          0 │ activation_183[0… │
│ (Concatenate)       │                   │            │ activation_186[0… │
├─────────────────────┼───────────────────┼────────────┼───────────────────┤
│ block8_6_conv       │ (None, 3, 3,      │    933,920 │ block8_6_mixed[0… │
│ (Conv2D)            │ 2080)             │            │                   │
├─────────────────────┼───────────────────┼────────────┼───────────────────┤
│ custom_scale_layer… │ (None, 3, 3,      │          0 │ block8_5_ac[0][0… │
│ (CustomScaleLayer)  │ 2080)             │            │ block8_6_conv[0]… │
├─────────────────────┼───────────────────┼────────────┼───────────────────┤
│ block8_6_ac         │ (None, 3, 3,      │          0 │ custom_scale_lay… │
│ (Activation)        │ 2080)             │            │                   │
├─────────────────────┼───────────────────┼────────────┼───────────────────┤
│ conv2d_188 (Conv2D) │ (None, 3, 3, 192) │    399,360 │ block8_6_ac[0][0] │
├─────────────────────┼───────────────────┼────────────┼───────────────────┤
│ batch_normalizatio… │ (None, 3, 3, 192) │        576 │ conv2d_188[0][0]  │
│ (BatchNormalizatio… │                   │            │                   │
├─────────────────────┼───────────────────┼────────────┼───────────────────┤
│ activation_188      │ (None, 3, 3, 192) │          0 │ batch_normalizat… │
│ (Activation)        │                   │            │                   │
├─────────────────────┼───────────────────┼────────────┼───────────────────┤
│ conv2d_189 (Conv2D) │ (None, 3, 3, 224) │    129,024 │ activation_188[0… │
├─────────────────────┼───────────────────┼────────────┼───────────────────┤
│ batch_normalizatio… │ (None, 3, 3, 224) │        672 │ conv2d_189[0][0]  │
│ (BatchNormalizatio… │                   │            │                   │
├─────────────────────┼───────────────────┼────────────┼───────────────────┤
│ activation_189      │ (None, 3, 3, 224) │          0 │ batch_normalizat… │
│ (Activation)        │                   │            │                   │
├─────────────────────┼───────────────────┼────────────┼───────────────────┤
│ conv2d_187 (Conv2D) │ (None, 3, 3, 192) │    399,360 │ block8_6_ac[0][0] │
├─────────────────────┼───────────────────┼────────────┼───────────────────┤
│ conv2d_190 (Conv2D) │ (None, 3, 3, 256) │    172,032 │ activation_189[0… │
├─────────────────────┼───────────────────┼────────────┼───────────────────┤
│ batch_normalizatio… │ (None, 3, 3, 192) │        576 │ conv2d_187[0][0]  │
│ (BatchNormalizatio… │                   │            │                   │
├─────────────────────┼───────────────────┼────────────┼───────────────────┤
│ batch_normalizatio… │ (None, 3, 3, 256) │        768 │ conv2d_190[0][0]  │
│ (BatchNormalizatio… │                   │            │                   │
├─────────────────────┼───────────────────┼────────────┼───────────────────┤
│ activation_187      │ (None, 3, 3, 192) │          0 │ batch_normalizat… │
│ (Activation)        │                   │            │                   │
├─────────────────────┼───────────────────┼────────────┼───────────────────┤
│ activation_190      │ (None, 3, 3, 256) │          0 │ batch_normalizat… │
│ (Activation)        │                   │            │                   │
├─────────────────────┼───────────────────┼────────────┼───────────────────┤
│ block8_7_mixed      │ (None, 3, 3, 448) │          0 │ activation_187[0… │
│ (Concatenate)       │                   │            │ activation_190[0… │
├─────────────────────┼───────────────────┼────────────┼───────────────────┤
│ block8_7_conv       │ (None, 3, 3,      │    933,920 │ block8_7_mixed[0… │
│ (Conv2D)            │ 2080)             │            │                   │
├─────────────────────┼───────────────────┼────────────┼───────────────────┤
│ custom_scale_layer… │ (None, 3, 3,      │          0 │ block8_6_ac[0][0… │
│ (CustomScaleLayer)  │ 2080)             │            │ block8_7_conv[0]… │
├─────────────────────┼───────────────────┼────────────┼───────────────────┤
│ block8_7_ac         │ (None, 3, 3,      │          0 │ custom_scale_lay… │
│ (Activation)        │ 2080)             │            │                   │
├─────────────────────┼───────────────────┼────────────┼───────────────────┤
│ conv2d_192 (Conv2D) │ (None, 3, 3, 192) │    399,360 │ block8_7_ac[0][0] │
├─────────────────────┼───────────────────┼────────────┼───────────────────┤
│ batch_normalizatio… │ (None, 3, 3, 192) │        576 │ conv2d_192[0][0]  │
│ (BatchNormalizatio… │                   │            │                   │
├─────────────────────┼───────────────────┼────────────┼───────────────────┤
│ activation_192      │ (None, 3, 3, 192) │          0 │ batch_normalizat… │
│ (Activation)        │                   │            │                   │
├─────────────────────┼───────────────────┼────────────┼───────────────────┤
│ conv2d_193 (Conv2D) │ (None, 3, 3, 224) │    129,024 │ activation_192[0… │
├─────────────────────┼───────────────────┼────────────┼───────────────────┤
│ batch_normalizatio… │ (None, 3, 3, 224) │        672 │ conv2d_193[0][0]  │
│ (BatchNormalizatio… │                   │            │                   │
├─────────────────────┼───────────────────┼────────────┼───────────────────┤
│ activation_193      │ (None, 3, 3, 224) │          0 │ batch_normalizat… │
│ (Activation)        │                   │            │                   │
├─────────────────────┼───────────────────┼────────────┼───────────────────┤
│ conv2d_191 (Conv2D) │ (None, 3, 3, 192) │    399,360 │ block8_7_ac[0][0] │
├─────────────────────┼───────────────────┼────────────┼───────────────────┤
│ conv2d_194 (Conv2D) │ (None, 3, 3, 256) │    172,032 │ activation_193[0… │
├─────────────────────┼───────────────────┼────────────┼───────────────────┤
│ batch_normalizatio… │ (None, 3, 3, 192) │        576 │ conv2d_191[0][0]  │
│ (BatchNormalizatio… │                   │            │                   │
├─────────────────────┼───────────────────┼────────────┼───────────────────┤
│ batch_normalizatio… │ (None, 3, 3, 256) │        768 │ conv2d_194[0][0]  │
│ (BatchNormalizatio… │                   │            │                   │
├─────────────────────┼───────────────────┼────────────┼───────────────────┤
│ activation_191      │ (None, 3, 3, 192) │          0 │ batch_normalizat… │
│ (Activation)        │                   │            │                   │
├─────────────────────┼───────────────────┼────────────┼───────────────────┤
│ activation_194      │ (None, 3, 3, 256) │          0 │ batch_normalizat… │
│ (Activation)        │                   │            │                   │
├─────────────────────┼───────────────────┼────────────┼───────────────────┤
│ block8_8_mixed      │ (None, 3, 3, 448) │          0 │ activation_191[0… │
│ (Concatenate)       │                   │            │ activation_194[0… │
├─────────────────────┼───────────────────┼────────────┼───────────────────┤
│ block8_8_conv       │ (None, 3, 3,      │    933,920 │ block8_8_mixed[0… │
│ (Conv2D)            │ 2080)             │            │                   │
├─────────────────────┼───────────────────┼────────────┼───────────────────┤
│ custom_scale_layer… │ (None, 3, 3,      │          0 │ block8_7_ac[0][0… │
│ (CustomScaleLayer)  │ 2080)             │            │ block8_8_conv[0]… │
├─────────────────────┼───────────────────┼────────────┼───────────────────┤
│ block8_8_ac         │ (None, 3, 3,      │          0 │ custom_scale_lay… │
│ (Activation)        │ 2080)             │            │                   │
├─────────────────────┼───────────────────┼────────────┼───────────────────┤
│ conv2d_196 (Conv2D) │ (None, 3, 3, 192) │    399,360 │ block8_8_ac[0][0] │
├─────────────────────┼───────────────────┼────────────┼───────────────────┤
│ batch_normalizatio… │ (None, 3, 3, 192) │        576 │ conv2d_196[0][0]  │
│ (BatchNormalizatio… │                   │            │                   │
├─────────────────────┼───────────────────┼────────────┼───────────────────┤
│ activation_196      │ (None, 3, 3, 192) │          0 │ batch_normalizat… │
│ (Activation)        │                   │            │                   │
├─────────────────────┼───────────────────┼────────────┼───────────────────┤
│ conv2d_197 (Conv2D) │ (None, 3, 3, 224) │    129,024 │ activation_196[0… │
├─────────────────────┼───────────────────┼────────────┼───────────────────┤
│ batch_normalizatio… │ (None, 3, 3, 224) │        672 │ conv2d_197[0][0]  │
│ (BatchNormalizatio… │                   │            │                   │
├─────────────────────┼───────────────────┼────────────┼───────────────────┤
│ activation_197      │ (None, 3, 3, 224) │          0 │ batch_normalizat… │
│ (Activation)        │                   │            │                   │
├─────────────────────┼───────────────────┼────────────┼───────────────────┤
│ conv2d_195 (Conv2D) │ (None, 3, 3, 192) │    399,360 │ block8_8_ac[0][0] │
├─────────────────────┼───────────────────┼────────────┼───────────────────┤
│ conv2d_198 (Conv2D) │ (None, 3, 3, 256) │    172,032 │ activation_197[0… │
├─────────────────────┼───────────────────┼────────────┼───────────────────┤
│ batch_normalizatio… │ (None, 3, 3, 192) │        576 │ conv2d_195[0][0]  │
│ (BatchNormalizatio… │                   │            │                   │
├─────────────────────┼───────────────────┼────────────┼───────────────────┤
│ batch_normalizatio… │ (None, 3, 3, 256) │        768 │ conv2d_198[0][0]  │
│ (BatchNormalizatio… │                   │            │                   │
├─────────────────────┼───────────────────┼────────────┼───────────────────┤
│ activation_195      │ (None, 3, 3, 192) │          0 │ batch_normalizat… │
│ (Activation)        │                   │            │                   │
├─────────────────────┼───────────────────┼────────────┼───────────────────┤
│ activation_198      │ (None, 3, 3, 256) │          0 │ batch_normalizat… │
│ (Activation)        │                   │            │                   │
├─────────────────────┼───────────────────┼────────────┼───────────────────┤
│ block8_9_mixed      │ (None, 3, 3, 448) │          0 │ activation_195[0… │
│ (Concatenate)       │                   │            │ activation_198[0… │
├─────────────────────┼───────────────────┼────────────┼───────────────────┤
│ block8_9_conv       │ (None, 3, 3,      │    933,920 │ block8_9_mixed[0… │
│ (Conv2D)            │ 2080)             │            │                   │
├─────────────────────┼───────────────────┼────────────┼───────────────────┤
│ custom_scale_layer… │ (None, 3, 3,      │          0 │ block8_8_ac[0][0… │
│ (CustomScaleLayer)  │ 2080)             │            │ block8_9_conv[0]… │
├─────────────────────┼───────────────────┼────────────┼───────────────────┤
│ block8_9_ac         │ (None, 3, 3,      │          0 │ custom_scale_lay… │
│ (Activation)        │ 2080)             │            │                   │
├─────────────────────┼───────────────────┼────────────┼───────────────────┤
│ conv2d_200 (Conv2D) │ (None, 3, 3, 192) │    399,360 │ block8_9_ac[0][0] │
├─────────────────────┼───────────────────┼────────────┼───────────────────┤
│ batch_normalizatio… │ (None, 3, 3, 192) │        576 │ conv2d_200[0][0]  │
│ (BatchNormalizatio… │                   │            │                   │
├─────────────────────┼───────────────────┼────────────┼───────────────────┤
│ activation_200      │ (None, 3, 3, 192) │          0 │ batch_normalizat… │
│ (Activation)        │                   │            │                   │
├─────────────────────┼───────────────────┼────────────┼───────────────────┤
│ conv2d_201 (Conv2D) │ (None, 3, 3, 224) │    129,024 │ activation_200[0… │
├─────────────────────┼───────────────────┼────────────┼───────────────────┤
│ batch_normalizatio… │ (None, 3, 3, 224) │        672 │ conv2d_201[0][0]  │
│ (BatchNormalizatio… │                   │            │                   │
├─────────────────────┼───────────────────┼────────────┼───────────────────┤
│ activation_201      │ (None, 3, 3, 224) │          0 │ batch_normalizat… │
│ (Activation)        │                   │            │                   │
├─────────────────────┼───────────────────┼────────────┼───────────────────┤
│ conv2d_199 (Conv2D) │ (None, 3, 3, 192) │    399,360 │ block8_9_ac[0][0] │
├─────────────────────┼───────────────────┼────────────┼───────────────────┤
│ conv2d_202 (Conv2D) │ (None, 3, 3, 256) │    172,032 │ activation_201[0… │
├─────────────────────┼───────────────────┼────────────┼───────────────────┤
│ batch_normalizatio… │ (None, 3, 3, 192) │        576 │ conv2d_199[0][0]  │
│ (BatchNormalizatio… │                   │            │                   │
├─────────────────────┼───────────────────┼────────────┼───────────────────┤
│ batch_normalizatio… │ (None, 3, 3, 256) │        768 │ conv2d_202[0][0]  │
│ (BatchNormalizatio… │                   │            │                   │
├─────────────────────┼───────────────────┼────────────┼───────────────────┤
│ activation_199      │ (None, 3, 3, 192) │          0 │ batch_normalizat… │
│ (Activation)        │                   │            │                   │
├─────────────────────┼───────────────────┼────────────┼───────────────────┤
│ activation_202      │ (None, 3, 3, 256) │          0 │ batch_normalizat… │
│ (Activation)        │                   │            │                   │
├─────────────────────┼───────────────────┼────────────┼───────────────────┤
│ block8_10_mixed     │ (None, 3, 3, 448) │          0 │ activation_199[0… │
│ (Concatenate)       │                   │            │ activation_202[0… │
├─────────────────────┼───────────────────┼────────────┼───────────────────┤
│ block8_10_conv      │ (None, 3, 3,      │    933,920 │ block8_10_mixed[… │
│ (Conv2D)            │ 2080)             │            │                   │
├─────────────────────┼───────────────────┼────────────┼───────────────────┤
…
Found 2000 images belonging to 2 classes.

Dataset Information:
Training samples: 8000
Test samples: 2000
Class indices: {'cats': 0, 'dogs': 1}
Image shape: (150, 150, 3)
*********************************************************

STEP 3: Creating Transfer Learning Model with 'Transfer Head'
Transfer Learning Model Architecture Summary:
Model: "sequential"
┏━━━━━━━━━━━━━━━━━━━━━━━━━━━━━━━━━┳━━━━━━━━━━━━━━━━━━━━━━━━┳━━━━━━━━━━━━━━━┓
┃ Layer (type)                    ┃ Output Shape           ┃       Param # ┃
┡━━━━━━━━━━━━━━━━━━━━━━━━━━━━━━━━━╇━━━━━━━━━━━━━━━━━━━━━━━━╇━━━━━━━━━━━━━━━┩
│ inception_resnet_v2             │ (None, 3, 3, 1536)     │    54,336,736 │
│ (Functional)                    │                        │               │
├─────────────────────────────────┼────────────────────────┼───────────────┤
│ global_average_pooling2d        │ (None, 1536)           │             0 │
│ (GlobalAveragePooling2D)        │                        │               │
├─────────────────────────────────┼────────────────────────┼───────────────┤
│ dense (Dense)                   │ (None, 128)            │       196,736 │
├─────────────────────────────────┼────────────────────────┼───────────────┤
│ dropout (Dropout)               │ (None, 128)            │             0 │
├─────────────────────────────────┼────────────────────────┼───────────────┤
│ dense_1 (Dense)                 │ (None, 1)              │           129 │
└─────────────────────────────────┴────────────────────────┴───────────────┘
 Total params: 54,533,601 (208.03 MB)
 Trainable params: 54,473,057 (207.80 MB)
 Non-trainable params: 60,544 (236.50 KB)

Transfer Model Parameters (for write-up):
Total parameters: 54,533,601
Trainable parameters: 54,473,057
Non-trainable parameters: 60,544

Pre-trained weights frozen: pre_model.trainable = False
Trainable parameters after freezing: 196,865
…
ANALYSIS: Comparing Full Network vs Sub-Network Transfer Learning

STEP 4iii: Transfer Learning with Sub-Network
Creating sub-network using first 100 layers of InceptionResNetV2
Original model has 780 layers
Sub-network details:
- Using layers 0 to 99
- Sub-network output shape: (None, 16, 16, 64)
Sub-network weights frozen: False

Sub-network Transfer Model Summary:
Model: "sequential_1"
┏━━━━━━━━━━━━━━━━━━━━━━━━━━━━━━━━━┳━━━━━━━━━━━━━━━━━━━━━━━━┳━━━━━━━━━━━━━━━┓
┃ Layer (type)                    ┃ Output Shape           ┃       Param # ┃
┡━━━━━━━━━━━━━━━━━━━━━━━━━━━━━━━━━╇━━━━━━━━━━━━━━━━━━━━━━━━╇━━━━━━━━━━━━━━━┩
│ functional_1 (Functional)       │ (None, 16, 16, 64)     │       740,880 │
├─────────────────────────────────┼────────────────────────┼───────────────┤
│ global_average_pooling2d_1      │ (None, 64)             │             0 │
│ (GlobalAveragePooling2D)        │                        │               │
├─────────────────────────────────┼────────────────────────┼───────────────┤
│ dense_2 (Dense)                 │ (None, 128)            │         8,320 │
├─────────────────────────────────┼────────────────────────┼───────────────┤
│ dropout_1 (Dropout)             │ (None, 128)            │             0 │
├─────────────────────────────────┼────────────────────────┼───────────────┤
│ dense_3 (Dense)                 │ (None, 1)              │           129 │
└─────────────────────────────────┴────────────────────────┴───────────────┘
 Total params: 749,329 (2.86 MB)
 Trainable params: 8,449 (33.00 KB)
 Non-trainable params: 740,880 (2.83 MB)

Training sub-network model for 10 epochs...
Epoch 1/10
[1m  1/250[0m [37m━━━━━━━━━━━━━━━━━━━━[0m [1m6:29[0m 2s/step - accuracy: 0.5938 - loss: 0.8122
…
